ir_version: 7
producer_name: "OnnxMLTools+onnx_optimizer"
producer_version: "1.7.0+0.6"
model_version: 0
graph {
  name: "combine_model"
  node {
    input: "image_shape"
    output: "combine_model_tfnodes_yolo_evaluation_layer_1_squeeze_0"
    name: "TFNodes/yolo_evaluation_layer_1/Squeeze"
    op_type: "Squeeze"
    attribute {
      name: "axes"
      ints: 0
      type: INTS
    }
    doc_string: ""
    domain: ""
  }
  node {
    input: "input_1"
    input: "W74"
    input: "combine_model_convolution_output74.opt.bias"
    output: "combine_model_convolution_output74"
    op_type: "Conv"
    attribute {
      name: "auto_pad"
      s: "SAME_UPPER"
      type: STRING
    }
    attribute {
      name: "dilations"
      ints: 1
      ints: 1
      type: INTS
    }
    attribute {
      name: "group"
      i: 1
      type: INT
    }
    attribute {
      name: "kernel_shape"
      ints: 3
      ints: 3
      type: INTS
    }
    attribute {
      name: "strides"
      ints: 1
      ints: 1
      type: INTS
    }
  }
  node {
    input: "TFNodes/yolo_evaluation_layer_1/Const_2:0"
    input: "TFNodes/yolo_evaluation_layer_1/Reshape_6/shape:0"
    output: "combine_model_tfnodes_yolo_evaluation_layer_1_reshape_6_0"
    name: "TFNodes/yolo_evaluation_layer_1/Reshape_6"
    op_type: "Reshape"
  }
  node {
    input: "TFNodes/yolo_evaluation_layer_1/Const_4:0"
    input: "TFNodes/yolo_evaluation_layer_1/Reshape_12/shape:0"
    output: "combine_model_tfnodes_yolo_evaluation_layer_1_reshape_12_0"
    name: "TFNodes/yolo_evaluation_layer_1/Reshape_12"
    op_type: "Reshape"
  }
  node {
    input: "TFNodes/yolo_evaluation_layer_1/Const:0"
    input: "TFNodes/yolo_evaluation_layer_1/Reshape/shape:0"
    output: "combine_model_tfnodes_yolo_evaluation_layer_1_reshape_0"
    name: "TFNodes/yolo_evaluation_layer_1/Reshape"
    op_type: "Reshape"
  }
  node {
    input: "combine_model_tfnodes_yolo_evaluation_layer_1_squeeze_0"
    input: "combine_model_tfnodes_yolo_evaluation_layer_1_squeeze_0"
    output: "combine_model_tfnodes_yolo_evaluation_layer_1_concat_8_0"
    name: "TFNodes/yolo_evaluation_layer_1/concat_8"
    op_type: "Concat"
    attribute {
      name: "axis"
      i: 0
      type: INT
    }
  }
  node {
    input: "combine_model_tfnodes_yolo_evaluation_layer_1_squeeze_0"
    input: "combine_model_tfnodes_yolo_evaluation_layer_1_squeeze_0"
    output: "combine_model_tfnodes_yolo_evaluation_layer_1_concat_5_0"
    name: "TFNodes/yolo_evaluation_layer_1/concat_5"
    op_type: "Concat"
    attribute {
      name: "axis"
      i: 0
      type: INT
    }
  }
  node {
    input: "combine_model_tfnodes_yolo_evaluation_layer_1_squeeze_0"
    input: "combine_model_tfnodes_yolo_evaluation_layer_1_squeeze_0"
    output: "combine_model_tfnodes_yolo_evaluation_layer_1_concat_2_0"
    name: "TFNodes/yolo_evaluation_layer_1/concat_2"
    op_type: "Concat"
    attribute {
      name: "axis"
      i: 0
      type: INT
    }
  }
  node {
    input: "combine_model_convolution_output74"
    output: "combine_model_leaky_re_lu_1_leakyrelu_0"
    name: "leaky_re_lu_1"
    op_type: "LeakyRelu"
    attribute {
      name: "alpha"
      f: 0.10000000149011612
      type: FLOAT
    }
    doc_string: ""
    domain: ""
  }
  node {
    input: "combine_model_leaky_re_lu_1_leakyrelu_0"
    input: "W71"
    input: "combine_model_convolution_output71.opt.bias"
    output: "combine_model_convolution_output71"
    op_type: "Conv"
    attribute {
      name: "auto_pad"
      s: "NOTSET"
      type: STRING
    }
    attribute {
      name: "dilations"
      ints: 1
      ints: 1
      type: INTS
    }
    attribute {
      name: "group"
      i: 1
      type: INT
    }
    attribute {
      name: "kernel_shape"
      ints: 3
      ints: 3
      type: INTS
    }
    attribute {
      name: "pads"
      ints: 1
      ints: 1
      ints: 0
      ints: 0
      type: INTS
    }
    attribute {
      name: "strides"
      ints: 2
      ints: 2
      type: INTS
    }
  }
  node {
    input: "combine_model_convolution_output71"
    output: "combine_model_leaky_re_lu_2_leakyrelu_0"
    name: "leaky_re_lu_2"
    op_type: "LeakyRelu"
    attribute {
      name: "alpha"
      f: 0.10000000149011612
      type: FLOAT
    }
    doc_string: ""
    domain: ""
  }
  node {
    input: "combine_model_leaky_re_lu_2_leakyrelu_0"
    input: "W73"
    input: "combine_model_convolution_output73.opt.bias"
    output: "combine_model_convolution_output73"
    op_type: "Conv"
    attribute {
      name: "auto_pad"
      s: "SAME_UPPER"
      type: STRING
    }
    attribute {
      name: "dilations"
      ints: 1
      ints: 1
      type: INTS
    }
    attribute {
      name: "group"
      i: 1
      type: INT
    }
    attribute {
      name: "kernel_shape"
      ints: 1
      ints: 1
      type: INTS
    }
    attribute {
      name: "strides"
      ints: 1
      ints: 1
      type: INTS
    }
  }
  node {
    input: "combine_model_convolution_output73"
    output: "combine_model_leaky_re_lu_3_leakyrelu_0"
    name: "leaky_re_lu_3"
    op_type: "LeakyRelu"
    attribute {
      name: "alpha"
      f: 0.10000000149011612
      type: FLOAT
    }
    doc_string: ""
    domain: ""
  }
  node {
    input: "combine_model_leaky_re_lu_3_leakyrelu_0"
    input: "W72"
    input: "combine_model_convolution_output72.opt.bias"
    output: "combine_model_convolution_output72"
    op_type: "Conv"
    attribute {
      name: "auto_pad"
      s: "SAME_UPPER"
      type: STRING
    }
    attribute {
      name: "dilations"
      ints: 1
      ints: 1
      type: INTS
    }
    attribute {
      name: "group"
      i: 1
      type: INT
    }
    attribute {
      name: "kernel_shape"
      ints: 3
      ints: 3
      type: INTS
    }
    attribute {
      name: "strides"
      ints: 1
      ints: 1
      type: INTS
    }
  }
  node {
    input: "combine_model_convolution_output72"
    output: "combine_model_leaky_re_lu_4_leakyrelu_0"
    name: "leaky_re_lu_4"
    op_type: "LeakyRelu"
    attribute {
      name: "alpha"
      f: 0.10000000149011612
      type: FLOAT
    }
    doc_string: ""
    domain: ""
  }
  node {
    input: "combine_model_leaky_re_lu_2_leakyrelu_0"
    input: "combine_model_leaky_re_lu_4_leakyrelu_0"
    output: "combine_model_add_1_add_0"
    name: "Add22"
    op_type: "Add"
    domain: ""
  }
  node {
    input: "combine_model_add_1_add_0"
    input: "W67"
    input: "combine_model_convolution_output67.opt.bias"
    output: "combine_model_convolution_output67"
    op_type: "Conv"
    attribute {
      name: "auto_pad"
      s: "NOTSET"
      type: STRING
    }
    attribute {
      name: "dilations"
      ints: 1
      ints: 1
      type: INTS
    }
    attribute {
      name: "group"
      i: 1
      type: INT
    }
    attribute {
      name: "kernel_shape"
      ints: 3
      ints: 3
      type: INTS
    }
    attribute {
      name: "pads"
      ints: 1
      ints: 1
      ints: 0
      ints: 0
      type: INTS
    }
    attribute {
      name: "strides"
      ints: 2
      ints: 2
      type: INTS
    }
  }
  node {
    input: "combine_model_convolution_output67"
    output: "combine_model_leaky_re_lu_5_leakyrelu_0"
    name: "leaky_re_lu_5"
    op_type: "LeakyRelu"
    attribute {
      name: "alpha"
      f: 0.10000000149011612
      type: FLOAT
    }
    doc_string: ""
    domain: ""
  }
  node {
    input: "combine_model_leaky_re_lu_5_leakyrelu_0"
    input: "W70"
    input: "combine_model_convolution_output70.opt.bias"
    output: "combine_model_convolution_output70"
    op_type: "Conv"
    attribute {
      name: "auto_pad"
      s: "SAME_UPPER"
      type: STRING
    }
    attribute {
      name: "dilations"
      ints: 1
      ints: 1
      type: INTS
    }
    attribute {
      name: "group"
      i: 1
      type: INT
    }
    attribute {
      name: "kernel_shape"
      ints: 1
      ints: 1
      type: INTS
    }
    attribute {
      name: "strides"
      ints: 1
      ints: 1
      type: INTS
    }
  }
  node {
    input: "combine_model_convolution_output70"
    output: "combine_model_leaky_re_lu_6_leakyrelu_0"
    name: "leaky_re_lu_6"
    op_type: "LeakyRelu"
    attribute {
      name: "alpha"
      f: 0.10000000149011612
      type: FLOAT
    }
    doc_string: ""
    domain: ""
  }
  node {
    input: "combine_model_leaky_re_lu_6_leakyrelu_0"
    input: "W68"
    input: "combine_model_convolution_output68.opt.bias"
    output: "combine_model_convolution_output68"
    op_type: "Conv"
    attribute {
      name: "auto_pad"
      s: "SAME_UPPER"
      type: STRING
    }
    attribute {
      name: "dilations"
      ints: 1
      ints: 1
      type: INTS
    }
    attribute {
      name: "group"
      i: 1
      type: INT
    }
    attribute {
      name: "kernel_shape"
      ints: 3
      ints: 3
      type: INTS
    }
    attribute {
      name: "strides"
      ints: 1
      ints: 1
      type: INTS
    }
  }
  node {
    input: "combine_model_convolution_output68"
    output: "combine_model_leaky_re_lu_7_leakyrelu_0"
    name: "leaky_re_lu_7"
    op_type: "LeakyRelu"
    attribute {
      name: "alpha"
      f: 0.10000000149011612
      type: FLOAT
    }
    doc_string: ""
    domain: ""
  }
  node {
    input: "combine_model_leaky_re_lu_5_leakyrelu_0"
    input: "combine_model_leaky_re_lu_7_leakyrelu_0"
    output: "combine_model_add_2_add_0"
    name: "Add21"
    op_type: "Add"
    domain: ""
  }
  node {
    input: "combine_model_add_2_add_0"
    input: "W69"
    input: "combine_model_convolution_output69.opt.bias"
    output: "combine_model_convolution_output69"
    op_type: "Conv"
    attribute {
      name: "auto_pad"
      s: "SAME_UPPER"
      type: STRING
    }
    attribute {
      name: "dilations"
      ints: 1
      ints: 1
      type: INTS
    }
    attribute {
      name: "group"
      i: 1
      type: INT
    }
    attribute {
      name: "kernel_shape"
      ints: 1
      ints: 1
      type: INTS
    }
    attribute {
      name: "strides"
      ints: 1
      ints: 1
      type: INTS
    }
  }
  node {
    input: "combine_model_convolution_output69"
    output: "combine_model_leaky_re_lu_8_leakyrelu_0"
    name: "leaky_re_lu_8"
    op_type: "LeakyRelu"
    attribute {
      name: "alpha"
      f: 0.10000000149011612
      type: FLOAT
    }
    doc_string: ""
    domain: ""
  }
  node {
    input: "combine_model_leaky_re_lu_8_leakyrelu_0"
    input: "W66"
    input: "combine_model_convolution_output66.opt.bias"
    output: "combine_model_convolution_output66"
    op_type: "Conv"
    attribute {
      name: "auto_pad"
      s: "SAME_UPPER"
      type: STRING
    }
    attribute {
      name: "dilations"
      ints: 1
      ints: 1
      type: INTS
    }
    attribute {
      name: "group"
      i: 1
      type: INT
    }
    attribute {
      name: "kernel_shape"
      ints: 3
      ints: 3
      type: INTS
    }
    attribute {
      name: "strides"
      ints: 1
      ints: 1
      type: INTS
    }
  }
  node {
    input: "combine_model_convolution_output66"
    output: "combine_model_leaky_re_lu_9_leakyrelu_0"
    name: "leaky_re_lu_9"
    op_type: "LeakyRelu"
    attribute {
      name: "alpha"
      f: 0.10000000149011612
      type: FLOAT
    }
    doc_string: ""
    domain: ""
  }
  node {
    input: "combine_model_add_2_add_0"
    input: "combine_model_leaky_re_lu_9_leakyrelu_0"
    output: "combine_model_add_3_add_0"
    name: "Add20"
    op_type: "Add"
    domain: ""
  }
  node {
    input: "combine_model_add_3_add_0"
    input: "W57"
    input: "combine_model_convolution_output57.opt.bias"
    output: "combine_model_convolution_output57"
    op_type: "Conv"
    attribute {
      name: "auto_pad"
      s: "NOTSET"
      type: STRING
    }
    attribute {
      name: "dilations"
      ints: 1
      ints: 1
      type: INTS
    }
    attribute {
      name: "group"
      i: 1
      type: INT
    }
    attribute {
      name: "kernel_shape"
      ints: 3
      ints: 3
      type: INTS
    }
    attribute {
      name: "pads"
      ints: 1
      ints: 1
      ints: 0
      ints: 0
      type: INTS
    }
    attribute {
      name: "strides"
      ints: 2
      ints: 2
      type: INTS
    }
  }
  node {
    input: "combine_model_convolution_output57"
    output: "combine_model_leaky_re_lu_10_leakyrelu_0"
    name: "leaky_re_lu_10"
    op_type: "LeakyRelu"
    attribute {
      name: "alpha"
      f: 0.10000000149011612
      type: FLOAT
    }
    doc_string: ""
    domain: ""
  }
  node {
    input: "combine_model_leaky_re_lu_10_leakyrelu_0"
    input: "W65"
    input: "combine_model_convolution_output65.opt.bias"
    output: "combine_model_convolution_output65"
    op_type: "Conv"
    attribute {
      name: "auto_pad"
      s: "SAME_UPPER"
      type: STRING
    }
    attribute {
      name: "dilations"
      ints: 1
      ints: 1
      type: INTS
    }
    attribute {
      name: "group"
      i: 1
      type: INT
    }
    attribute {
      name: "kernel_shape"
      ints: 1
      ints: 1
      type: INTS
    }
    attribute {
      name: "strides"
      ints: 1
      ints: 1
      type: INTS
    }
  }
  node {
    input: "combine_model_convolution_output65"
    output: "combine_model_leaky_re_lu_11_leakyrelu_0"
    name: "leaky_re_lu_11"
    op_type: "LeakyRelu"
    attribute {
      name: "alpha"
      f: 0.10000000149011612
      type: FLOAT
    }
    doc_string: ""
    domain: ""
  }
  node {
    input: "combine_model_leaky_re_lu_11_leakyrelu_0"
    input: "W58"
    input: "combine_model_convolution_output58.opt.bias"
    output: "combine_model_convolution_output58"
    op_type: "Conv"
    attribute {
      name: "auto_pad"
      s: "SAME_UPPER"
      type: STRING
    }
    attribute {
      name: "dilations"
      ints: 1
      ints: 1
      type: INTS
    }
    attribute {
      name: "group"
      i: 1
      type: INT
    }
    attribute {
      name: "kernel_shape"
      ints: 3
      ints: 3
      type: INTS
    }
    attribute {
      name: "strides"
      ints: 1
      ints: 1
      type: INTS
    }
  }
  node {
    input: "combine_model_convolution_output58"
    output: "combine_model_leaky_re_lu_12_leakyrelu_0"
    name: "leaky_re_lu_12"
    op_type: "LeakyRelu"
    attribute {
      name: "alpha"
      f: 0.10000000149011612
      type: FLOAT
    }
    doc_string: ""
    domain: ""
  }
  node {
    input: "combine_model_leaky_re_lu_10_leakyrelu_0"
    input: "combine_model_leaky_re_lu_12_leakyrelu_0"
    output: "combine_model_add_4_add_0"
    name: "Add19"
    op_type: "Add"
    domain: ""
  }
  node {
    input: "combine_model_add_4_add_0"
    input: "W63"
    input: "combine_model_convolution_output63.opt.bias"
    output: "combine_model_convolution_output63"
    op_type: "Conv"
    attribute {
      name: "auto_pad"
      s: "SAME_UPPER"
      type: STRING
    }
    attribute {
      name: "dilations"
      ints: 1
      ints: 1
      type: INTS
    }
    attribute {
      name: "group"
      i: 1
      type: INT
    }
    attribute {
      name: "kernel_shape"
      ints: 1
      ints: 1
      type: INTS
    }
    attribute {
      name: "strides"
      ints: 1
      ints: 1
      type: INTS
    }
  }
  node {
    input: "combine_model_convolution_output63"
    output: "combine_model_leaky_re_lu_13_leakyrelu_0"
    name: "leaky_re_lu_13"
    op_type: "LeakyRelu"
    attribute {
      name: "alpha"
      f: 0.10000000149011612
      type: FLOAT
    }
    doc_string: ""
    domain: ""
  }
  node {
    input: "combine_model_leaky_re_lu_13_leakyrelu_0"
    input: "W52"
    input: "combine_model_convolution_output52.opt.bias"
    output: "combine_model_convolution_output52"
    op_type: "Conv"
    attribute {
      name: "auto_pad"
      s: "SAME_UPPER"
      type: STRING
    }
    attribute {
      name: "dilations"
      ints: 1
      ints: 1
      type: INTS
    }
    attribute {
      name: "group"
      i: 1
      type: INT
    }
    attribute {
      name: "kernel_shape"
      ints: 3
      ints: 3
      type: INTS
    }
    attribute {
      name: "strides"
      ints: 1
      ints: 1
      type: INTS
    }
  }
  node {
    input: "combine_model_convolution_output52"
    output: "combine_model_leaky_re_lu_14_leakyrelu_0"
    name: "leaky_re_lu_14"
    op_type: "LeakyRelu"
    attribute {
      name: "alpha"
      f: 0.10000000149011612
      type: FLOAT
    }
    doc_string: ""
    domain: ""
  }
  node {
    input: "combine_model_add_4_add_0"
    input: "combine_model_leaky_re_lu_14_leakyrelu_0"
    output: "combine_model_add_5_add_0"
    name: "Add17"
    op_type: "Add"
    domain: ""
  }
  node {
    input: "combine_model_add_5_add_0"
    input: "W61"
    input: "combine_model_convolution_output61.opt.bias"
    output: "combine_model_convolution_output61"
    op_type: "Conv"
    attribute {
      name: "auto_pad"
      s: "SAME_UPPER"
      type: STRING
    }
    attribute {
      name: "dilations"
      ints: 1
      ints: 1
      type: INTS
    }
    attribute {
      name: "group"
      i: 1
      type: INT
    }
    attribute {
      name: "kernel_shape"
      ints: 1
      ints: 1
      type: INTS
    }
    attribute {
      name: "strides"
      ints: 1
      ints: 1
      type: INTS
    }
  }
  node {
    input: "combine_model_convolution_output61"
    output: "combine_model_leaky_re_lu_15_leakyrelu_0"
    name: "leaky_re_lu_15"
    op_type: "LeakyRelu"
    attribute {
      name: "alpha"
      f: 0.10000000149011612
      type: FLOAT
    }
    doc_string: ""
    domain: ""
  }
  node {
    input: "combine_model_leaky_re_lu_15_leakyrelu_0"
    input: "W48"
    input: "combine_model_convolution_output48.opt.bias"
    output: "combine_model_convolution_output48"
    op_type: "Conv"
    attribute {
      name: "auto_pad"
      s: "SAME_UPPER"
      type: STRING
    }
    attribute {
      name: "dilations"
      ints: 1
      ints: 1
      type: INTS
    }
    attribute {
      name: "group"
      i: 1
      type: INT
    }
    attribute {
      name: "kernel_shape"
      ints: 3
      ints: 3
      type: INTS
    }
    attribute {
      name: "strides"
      ints: 1
      ints: 1
      type: INTS
    }
  }
  node {
    input: "combine_model_convolution_output48"
    output: "combine_model_leaky_re_lu_16_leakyrelu_0"
    name: "leaky_re_lu_16"
    op_type: "LeakyRelu"
    attribute {
      name: "alpha"
      f: 0.10000000149011612
      type: FLOAT
    }
    doc_string: ""
    domain: ""
  }
  node {
    input: "combine_model_add_5_add_0"
    input: "combine_model_leaky_re_lu_16_leakyrelu_0"
    output: "combine_model_add_6_add_0"
    name: "Add15"
    op_type: "Add"
    domain: ""
  }
  node {
    input: "combine_model_add_6_add_0"
    input: "W59"
    input: "combine_model_convolution_output59.opt.bias"
    output: "combine_model_convolution_output59"
    op_type: "Conv"
    attribute {
      name: "auto_pad"
      s: "SAME_UPPER"
      type: STRING
    }
    attribute {
      name: "dilations"
      ints: 1
      ints: 1
      type: INTS
    }
    attribute {
      name: "group"
      i: 1
      type: INT
    }
    attribute {
      name: "kernel_shape"
      ints: 1
      ints: 1
      type: INTS
    }
    attribute {
      name: "strides"
      ints: 1
      ints: 1
      type: INTS
    }
  }
  node {
    input: "combine_model_convolution_output59"
    output: "combine_model_leaky_re_lu_17_leakyrelu_0"
    name: "leaky_re_lu_17"
    op_type: "LeakyRelu"
    attribute {
      name: "alpha"
      f: 0.10000000149011612
      type: FLOAT
    }
    doc_string: ""
    domain: ""
  }
  node {
    input: "combine_model_leaky_re_lu_17_leakyrelu_0"
    input: "W43"
    input: "combine_model_convolution_output43.opt.bias"
    output: "combine_model_convolution_output43"
    op_type: "Conv"
    attribute {
      name: "auto_pad"
      s: "SAME_UPPER"
      type: STRING
    }
    attribute {
      name: "dilations"
      ints: 1
      ints: 1
      type: INTS
    }
    attribute {
      name: "group"
      i: 1
      type: INT
    }
    attribute {
      name: "kernel_shape"
      ints: 3
      ints: 3
      type: INTS
    }
    attribute {
      name: "strides"
      ints: 1
      ints: 1
      type: INTS
    }
  }
  node {
    input: "combine_model_convolution_output43"
    output: "combine_model_leaky_re_lu_18_leakyrelu_0"
    name: "leaky_re_lu_18"
    op_type: "LeakyRelu"
    attribute {
      name: "alpha"
      f: 0.10000000149011612
      type: FLOAT
    }
    doc_string: ""
    domain: ""
  }
  node {
    input: "combine_model_add_6_add_0"
    input: "combine_model_leaky_re_lu_18_leakyrelu_0"
    output: "combine_model_add_7_add_0"
    name: "Add13"
    op_type: "Add"
    domain: ""
  }
  node {
    input: "combine_model_add_7_add_0"
    input: "W53"
    input: "combine_model_convolution_output53.opt.bias"
    output: "combine_model_convolution_output53"
    op_type: "Conv"
    attribute {
      name: "auto_pad"
      s: "SAME_UPPER"
      type: STRING
    }
    attribute {
      name: "dilations"
      ints: 1
      ints: 1
      type: INTS
    }
    attribute {
      name: "group"
      i: 1
      type: INT
    }
    attribute {
      name: "kernel_shape"
      ints: 1
      ints: 1
      type: INTS
    }
    attribute {
      name: "strides"
      ints: 1
      ints: 1
      type: INTS
    }
  }
  node {
    input: "combine_model_convolution_output53"
    output: "combine_model_leaky_re_lu_19_leakyrelu_0"
    name: "leaky_re_lu_19"
    op_type: "LeakyRelu"
    attribute {
      name: "alpha"
      f: 0.10000000149011612
      type: FLOAT
    }
    doc_string: ""
    domain: ""
  }
  node {
    input: "combine_model_leaky_re_lu_19_leakyrelu_0"
    input: "W38"
    input: "combine_model_convolution_output38.opt.bias"
    output: "combine_model_convolution_output38"
    op_type: "Conv"
    attribute {
      name: "auto_pad"
      s: "SAME_UPPER"
      type: STRING
    }
    attribute {
      name: "dilations"
      ints: 1
      ints: 1
      type: INTS
    }
    attribute {
      name: "group"
      i: 1
      type: INT
    }
    attribute {
      name: "kernel_shape"
      ints: 3
      ints: 3
      type: INTS
    }
    attribute {
      name: "strides"
      ints: 1
      ints: 1
      type: INTS
    }
  }
  node {
    input: "combine_model_convolution_output38"
    output: "combine_model_leaky_re_lu_20_leakyrelu_0"
    name: "leaky_re_lu_20"
    op_type: "LeakyRelu"
    attribute {
      name: "alpha"
      f: 0.10000000149011612
      type: FLOAT
    }
    doc_string: ""
    domain: ""
  }
  node {
    input: "combine_model_add_7_add_0"
    input: "combine_model_leaky_re_lu_20_leakyrelu_0"
    output: "combine_model_add_8_add_0"
    name: "Add11"
    op_type: "Add"
    domain: ""
  }
  node {
    input: "combine_model_add_8_add_0"
    input: "W49"
    input: "combine_model_convolution_output49.opt.bias"
    output: "combine_model_convolution_output49"
    op_type: "Conv"
    attribute {
      name: "auto_pad"
      s: "SAME_UPPER"
      type: STRING
    }
    attribute {
      name: "dilations"
      ints: 1
      ints: 1
      type: INTS
    }
    attribute {
      name: "group"
      i: 1
      type: INT
    }
    attribute {
      name: "kernel_shape"
      ints: 1
      ints: 1
      type: INTS
    }
    attribute {
      name: "strides"
      ints: 1
      ints: 1
      type: INTS
    }
  }
  node {
    input: "combine_model_convolution_output49"
    output: "combine_model_leaky_re_lu_21_leakyrelu_0"
    name: "leaky_re_lu_21"
    op_type: "LeakyRelu"
    attribute {
      name: "alpha"
      f: 0.10000000149011612
      type: FLOAT
    }
    doc_string: ""
    domain: ""
  }
  node {
    input: "combine_model_leaky_re_lu_21_leakyrelu_0"
    input: "W34"
    input: "combine_model_convolution_output34.opt.bias"
    output: "combine_model_convolution_output34"
    op_type: "Conv"
    attribute {
      name: "auto_pad"
      s: "SAME_UPPER"
      type: STRING
    }
    attribute {
      name: "dilations"
      ints: 1
      ints: 1
      type: INTS
    }
    attribute {
      name: "group"
      i: 1
      type: INT
    }
    attribute {
      name: "kernel_shape"
      ints: 3
      ints: 3
      type: INTS
    }
    attribute {
      name: "strides"
      ints: 1
      ints: 1
      type: INTS
    }
  }
  node {
    input: "combine_model_convolution_output34"
    output: "combine_model_leaky_re_lu_22_leakyrelu_0"
    name: "leaky_re_lu_22"
    op_type: "LeakyRelu"
    attribute {
      name: "alpha"
      f: 0.10000000149011612
      type: FLOAT
    }
    doc_string: ""
    domain: ""
  }
  node {
    input: "combine_model_add_8_add_0"
    input: "combine_model_leaky_re_lu_22_leakyrelu_0"
    output: "combine_model_add_9_add_0"
    name: "Add9"
    op_type: "Add"
    domain: ""
  }
  node {
    input: "combine_model_add_9_add_0"
    input: "W44"
    input: "combine_model_convolution_output44.opt.bias"
    output: "combine_model_convolution_output44"
    op_type: "Conv"
    attribute {
      name: "auto_pad"
      s: "SAME_UPPER"
      type: STRING
    }
    attribute {
      name: "dilations"
      ints: 1
      ints: 1
      type: INTS
    }
    attribute {
      name: "group"
      i: 1
      type: INT
    }
    attribute {
      name: "kernel_shape"
      ints: 1
      ints: 1
      type: INTS
    }
    attribute {
      name: "strides"
      ints: 1
      ints: 1
      type: INTS
    }
  }
  node {
    input: "combine_model_convolution_output44"
    output: "combine_model_leaky_re_lu_23_leakyrelu_0"
    name: "leaky_re_lu_23"
    op_type: "LeakyRelu"
    attribute {
      name: "alpha"
      f: 0.10000000149011612
      type: FLOAT
    }
    doc_string: ""
    domain: ""
  }
  node {
    input: "combine_model_leaky_re_lu_23_leakyrelu_0"
    input: "W29"
    input: "combine_model_convolution_output29.opt.bias"
    output: "combine_model_convolution_output29"
    op_type: "Conv"
    attribute {
      name: "auto_pad"
      s: "SAME_UPPER"
      type: STRING
    }
    attribute {
      name: "dilations"
      ints: 1
      ints: 1
      type: INTS
    }
    attribute {
      name: "group"
      i: 1
      type: INT
    }
    attribute {
      name: "kernel_shape"
      ints: 3
      ints: 3
      type: INTS
    }
    attribute {
      name: "strides"
      ints: 1
      ints: 1
      type: INTS
    }
  }
  node {
    input: "combine_model_convolution_output29"
    output: "combine_model_leaky_re_lu_24_leakyrelu_0"
    name: "leaky_re_lu_24"
    op_type: "LeakyRelu"
    attribute {
      name: "alpha"
      f: 0.10000000149011612
      type: FLOAT
    }
    doc_string: ""
    domain: ""
  }
  node {
    input: "combine_model_add_9_add_0"
    input: "combine_model_leaky_re_lu_24_leakyrelu_0"
    output: "combine_model_add_10_add_0"
    name: "Add6"
    op_type: "Add"
    domain: ""
  }
  node {
    input: "combine_model_add_10_add_0"
    input: "W39"
    input: "combine_model_convolution_output39.opt.bias"
    output: "combine_model_convolution_output39"
    op_type: "Conv"
    attribute {
      name: "auto_pad"
      s: "SAME_UPPER"
      type: STRING
    }
    attribute {
      name: "dilations"
      ints: 1
      ints: 1
      type: INTS
    }
    attribute {
      name: "group"
      i: 1
      type: INT
    }
    attribute {
      name: "kernel_shape"
      ints: 1
      ints: 1
      type: INTS
    }
    attribute {
      name: "strides"
      ints: 1
      ints: 1
      type: INTS
    }
  }
  node {
    input: "combine_model_convolution_output39"
    output: "combine_model_leaky_re_lu_25_leakyrelu_0"
    name: "leaky_re_lu_25"
    op_type: "LeakyRelu"
    attribute {
      name: "alpha"
      f: 0.10000000149011612
      type: FLOAT
    }
    doc_string: ""
    domain: ""
  }
  node {
    input: "combine_model_leaky_re_lu_25_leakyrelu_0"
    input: "W26"
    input: "combine_model_convolution_output26.opt.bias"
    output: "combine_model_convolution_output26"
    op_type: "Conv"
    attribute {
      name: "auto_pad"
      s: "SAME_UPPER"
      type: STRING
    }
    attribute {
      name: "dilations"
      ints: 1
      ints: 1
      type: INTS
    }
    attribute {
      name: "group"
      i: 1
      type: INT
    }
    attribute {
      name: "kernel_shape"
      ints: 3
      ints: 3
      type: INTS
    }
    attribute {
      name: "strides"
      ints: 1
      ints: 1
      type: INTS
    }
  }
  node {
    input: "combine_model_convolution_output26"
    output: "combine_model_leaky_re_lu_26_leakyrelu_0"
    name: "leaky_re_lu_26"
    op_type: "LeakyRelu"
    attribute {
      name: "alpha"
      f: 0.10000000149011612
      type: FLOAT
    }
    doc_string: ""
    domain: ""
  }
  node {
    input: "combine_model_add_10_add_0"
    input: "combine_model_leaky_re_lu_26_leakyrelu_0"
    output: "combine_model_add_11_add_0"
    name: "Add3"
    op_type: "Add"
    domain: ""
  }
  node {
    input: "combine_model_add_11_add_0"
    input: "W54"
    input: "combine_model_convolution_output54.opt.bias"
    output: "combine_model_convolution_output54"
    op_type: "Conv"
    attribute {
      name: "auto_pad"
      s: "NOTSET"
      type: STRING
    }
    attribute {
      name: "dilations"
      ints: 1
      ints: 1
      type: INTS
    }
    attribute {
      name: "group"
      i: 1
      type: INT
    }
    attribute {
      name: "kernel_shape"
      ints: 3
      ints: 3
      type: INTS
    }
    attribute {
      name: "pads"
      ints: 1
      ints: 1
      ints: 0
      ints: 0
      type: INTS
    }
    attribute {
      name: "strides"
      ints: 2
      ints: 2
      type: INTS
    }
  }
  node {
    input: "combine_model_convolution_output54"
    output: "combine_model_leaky_re_lu_27_leakyrelu_0"
    name: "leaky_re_lu_27"
    op_type: "LeakyRelu"
    attribute {
      name: "alpha"
      f: 0.10000000149011612
      type: FLOAT
    }
    doc_string: ""
    domain: ""
  }
  node {
    input: "combine_model_leaky_re_lu_27_leakyrelu_0"
    input: "W64"
    input: "combine_model_convolution_output64.opt.bias"
    output: "combine_model_convolution_output64"
    op_type: "Conv"
    attribute {
      name: "auto_pad"
      s: "SAME_UPPER"
      type: STRING
    }
    attribute {
      name: "dilations"
      ints: 1
      ints: 1
      type: INTS
    }
    attribute {
      name: "group"
      i: 1
      type: INT
    }
    attribute {
      name: "kernel_shape"
      ints: 1
      ints: 1
      type: INTS
    }
    attribute {
      name: "strides"
      ints: 1
      ints: 1
      type: INTS
    }
  }
  node {
    input: "combine_model_convolution_output64"
    output: "combine_model_leaky_re_lu_28_leakyrelu_0"
    name: "leaky_re_lu_28"
    op_type: "LeakyRelu"
    attribute {
      name: "alpha"
      f: 0.10000000149011612
      type: FLOAT
    }
    doc_string: ""
    domain: ""
  }
  node {
    input: "combine_model_leaky_re_lu_28_leakyrelu_0"
    input: "W55"
    input: "combine_model_convolution_output55.opt.bias"
    output: "combine_model_convolution_output55"
    op_type: "Conv"
    attribute {
      name: "auto_pad"
      s: "SAME_UPPER"
      type: STRING
    }
    attribute {
      name: "dilations"
      ints: 1
      ints: 1
      type: INTS
    }
    attribute {
      name: "group"
      i: 1
      type: INT
    }
    attribute {
      name: "kernel_shape"
      ints: 3
      ints: 3
      type: INTS
    }
    attribute {
      name: "strides"
      ints: 1
      ints: 1
      type: INTS
    }
  }
  node {
    input: "combine_model_convolution_output55"
    output: "combine_model_leaky_re_lu_29_leakyrelu_0"
    name: "leaky_re_lu_29"
    op_type: "LeakyRelu"
    attribute {
      name: "alpha"
      f: 0.10000000149011612
      type: FLOAT
    }
    doc_string: ""
    domain: ""
  }
  node {
    input: "combine_model_leaky_re_lu_27_leakyrelu_0"
    input: "combine_model_leaky_re_lu_29_leakyrelu_0"
    output: "combine_model_add_12_add_0"
    name: "Add18"
    op_type: "Add"
    domain: ""
  }
  node {
    input: "combine_model_add_12_add_0"
    input: "W62"
    input: "combine_model_convolution_output62.opt.bias"
    output: "combine_model_convolution_output62"
    op_type: "Conv"
    attribute {
      name: "auto_pad"
      s: "SAME_UPPER"
      type: STRING
    }
    attribute {
      name: "dilations"
      ints: 1
      ints: 1
      type: INTS
    }
    attribute {
      name: "group"
      i: 1
      type: INT
    }
    attribute {
      name: "kernel_shape"
      ints: 1
      ints: 1
      type: INTS
    }
    attribute {
      name: "strides"
      ints: 1
      ints: 1
      type: INTS
    }
  }
  node {
    input: "combine_model_convolution_output62"
    output: "combine_model_leaky_re_lu_30_leakyrelu_0"
    name: "leaky_re_lu_30"
    op_type: "LeakyRelu"
    attribute {
      name: "alpha"
      f: 0.10000000149011612
      type: FLOAT
    }
    doc_string: ""
    domain: ""
  }
  node {
    input: "combine_model_leaky_re_lu_30_leakyrelu_0"
    input: "W50"
    input: "combine_model_convolution_output50.opt.bias"
    output: "combine_model_convolution_output50"
    op_type: "Conv"
    attribute {
      name: "auto_pad"
      s: "SAME_UPPER"
      type: STRING
    }
    attribute {
      name: "dilations"
      ints: 1
      ints: 1
      type: INTS
    }
    attribute {
      name: "group"
      i: 1
      type: INT
    }
    attribute {
      name: "kernel_shape"
      ints: 3
      ints: 3
      type: INTS
    }
    attribute {
      name: "strides"
      ints: 1
      ints: 1
      type: INTS
    }
  }
  node {
    input: "combine_model_convolution_output50"
    output: "combine_model_leaky_re_lu_31_leakyrelu_0"
    name: "leaky_re_lu_31"
    op_type: "LeakyRelu"
    attribute {
      name: "alpha"
      f: 0.10000000149011612
      type: FLOAT
    }
    doc_string: ""
    domain: ""
  }
  node {
    input: "combine_model_add_12_add_0"
    input: "combine_model_leaky_re_lu_31_leakyrelu_0"
    output: "combine_model_add_13_add_0"
    name: "Add16"
    op_type: "Add"
    domain: ""
  }
  node {
    input: "combine_model_add_13_add_0"
    input: "W60"
    input: "combine_model_convolution_output60.opt.bias"
    output: "combine_model_convolution_output60"
    op_type: "Conv"
    attribute {
      name: "auto_pad"
      s: "SAME_UPPER"
      type: STRING
    }
    attribute {
      name: "dilations"
      ints: 1
      ints: 1
      type: INTS
    }
    attribute {
      name: "group"
      i: 1
      type: INT
    }
    attribute {
      name: "kernel_shape"
      ints: 1
      ints: 1
      type: INTS
    }
    attribute {
      name: "strides"
      ints: 1
      ints: 1
      type: INTS
    }
  }
  node {
    input: "combine_model_convolution_output60"
    output: "combine_model_leaky_re_lu_32_leakyrelu_0"
    name: "leaky_re_lu_32"
    op_type: "LeakyRelu"
    attribute {
      name: "alpha"
      f: 0.10000000149011612
      type: FLOAT
    }
    doc_string: ""
    domain: ""
  }
  node {
    input: "combine_model_leaky_re_lu_32_leakyrelu_0"
    input: "W46"
    input: "combine_model_convolution_output46.opt.bias"
    output: "combine_model_convolution_output46"
    op_type: "Conv"
    attribute {
      name: "auto_pad"
      s: "SAME_UPPER"
      type: STRING
    }
    attribute {
      name: "dilations"
      ints: 1
      ints: 1
      type: INTS
    }
    attribute {
      name: "group"
      i: 1
      type: INT
    }
    attribute {
      name: "kernel_shape"
      ints: 3
      ints: 3
      type: INTS
    }
    attribute {
      name: "strides"
      ints: 1
      ints: 1
      type: INTS
    }
  }
  node {
    input: "combine_model_convolution_output46"
    output: "combine_model_leaky_re_lu_33_leakyrelu_0"
    name: "leaky_re_lu_33"
    op_type: "LeakyRelu"
    attribute {
      name: "alpha"
      f: 0.10000000149011612
      type: FLOAT
    }
    doc_string: ""
    domain: ""
  }
  node {
    input: "combine_model_add_13_add_0"
    input: "combine_model_leaky_re_lu_33_leakyrelu_0"
    output: "combine_model_add_14_add_0"
    name: "Add14"
    op_type: "Add"
    domain: ""
  }
  node {
    input: "combine_model_add_14_add_0"
    input: "W56"
    input: "combine_model_convolution_output56.opt.bias"
    output: "combine_model_convolution_output56"
    op_type: "Conv"
    attribute {
      name: "auto_pad"
      s: "SAME_UPPER"
      type: STRING
    }
    attribute {
      name: "dilations"
      ints: 1
      ints: 1
      type: INTS
    }
    attribute {
      name: "group"
      i: 1
      type: INT
    }
    attribute {
      name: "kernel_shape"
      ints: 1
      ints: 1
      type: INTS
    }
    attribute {
      name: "strides"
      ints: 1
      ints: 1
      type: INTS
    }
  }
  node {
    input: "combine_model_convolution_output56"
    output: "combine_model_leaky_re_lu_34_leakyrelu_0"
    name: "leaky_re_lu_34"
    op_type: "LeakyRelu"
    attribute {
      name: "alpha"
      f: 0.10000000149011612
      type: FLOAT
    }
    doc_string: ""
    domain: ""
  }
  node {
    input: "combine_model_leaky_re_lu_34_leakyrelu_0"
    input: "W41"
    input: "combine_model_convolution_output41.opt.bias"
    output: "combine_model_convolution_output41"
    op_type: "Conv"
    attribute {
      name: "auto_pad"
      s: "SAME_UPPER"
      type: STRING
    }
    attribute {
      name: "dilations"
      ints: 1
      ints: 1
      type: INTS
    }
    attribute {
      name: "group"
      i: 1
      type: INT
    }
    attribute {
      name: "kernel_shape"
      ints: 3
      ints: 3
      type: INTS
    }
    attribute {
      name: "strides"
      ints: 1
      ints: 1
      type: INTS
    }
  }
  node {
    input: "combine_model_convolution_output41"
    output: "combine_model_leaky_re_lu_35_leakyrelu_0"
    name: "leaky_re_lu_35"
    op_type: "LeakyRelu"
    attribute {
      name: "alpha"
      f: 0.10000000149011612
      type: FLOAT
    }
    doc_string: ""
    domain: ""
  }
  node {
    input: "combine_model_add_14_add_0"
    input: "combine_model_leaky_re_lu_35_leakyrelu_0"
    output: "combine_model_add_15_add_0"
    name: "Add12"
    op_type: "Add"
    domain: ""
  }
  node {
    input: "combine_model_add_15_add_0"
    input: "W51"
    input: "combine_model_convolution_output51.opt.bias"
    output: "combine_model_convolution_output51"
    op_type: "Conv"
    attribute {
      name: "auto_pad"
      s: "SAME_UPPER"
      type: STRING
    }
    attribute {
      name: "dilations"
      ints: 1
      ints: 1
      type: INTS
    }
    attribute {
      name: "group"
      i: 1
      type: INT
    }
    attribute {
      name: "kernel_shape"
      ints: 1
      ints: 1
      type: INTS
    }
    attribute {
      name: "strides"
      ints: 1
      ints: 1
      type: INTS
    }
  }
  node {
    input: "combine_model_convolution_output51"
    output: "combine_model_leaky_re_lu_36_leakyrelu_0"
    name: "leaky_re_lu_36"
    op_type: "LeakyRelu"
    attribute {
      name: "alpha"
      f: 0.10000000149011612
      type: FLOAT
    }
    doc_string: ""
    domain: ""
  }
  node {
    input: "combine_model_leaky_re_lu_36_leakyrelu_0"
    input: "W36"
    input: "combine_model_convolution_output36.opt.bias"
    output: "combine_model_convolution_output36"
    op_type: "Conv"
    attribute {
      name: "auto_pad"
      s: "SAME_UPPER"
      type: STRING
    }
    attribute {
      name: "dilations"
      ints: 1
      ints: 1
      type: INTS
    }
    attribute {
      name: "group"
      i: 1
      type: INT
    }
    attribute {
      name: "kernel_shape"
      ints: 3
      ints: 3
      type: INTS
    }
    attribute {
      name: "strides"
      ints: 1
      ints: 1
      type: INTS
    }
  }
  node {
    input: "combine_model_convolution_output36"
    output: "combine_model_leaky_re_lu_37_leakyrelu_0"
    name: "leaky_re_lu_37"
    op_type: "LeakyRelu"
    attribute {
      name: "alpha"
      f: 0.10000000149011612
      type: FLOAT
    }
    doc_string: ""
    domain: ""
  }
  node {
    input: "combine_model_add_15_add_0"
    input: "combine_model_leaky_re_lu_37_leakyrelu_0"
    output: "combine_model_add_16_add_0"
    name: "Add10"
    op_type: "Add"
    domain: ""
  }
  node {
    input: "combine_model_add_16_add_0"
    input: "W47"
    input: "combine_model_convolution_output47.opt.bias"
    output: "combine_model_convolution_output47"
    op_type: "Conv"
    attribute {
      name: "auto_pad"
      s: "SAME_UPPER"
      type: STRING
    }
    attribute {
      name: "dilations"
      ints: 1
      ints: 1
      type: INTS
    }
    attribute {
      name: "group"
      i: 1
      type: INT
    }
    attribute {
      name: "kernel_shape"
      ints: 1
      ints: 1
      type: INTS
    }
    attribute {
      name: "strides"
      ints: 1
      ints: 1
      type: INTS
    }
  }
  node {
    input: "combine_model_convolution_output47"
    output: "combine_model_leaky_re_lu_38_leakyrelu_0"
    name: "leaky_re_lu_38"
    op_type: "LeakyRelu"
    attribute {
      name: "alpha"
      f: 0.10000000149011612
      type: FLOAT
    }
    doc_string: ""
    domain: ""
  }
  node {
    input: "combine_model_leaky_re_lu_38_leakyrelu_0"
    input: "W33"
    input: "combine_model_convolution_output33.opt.bias"
    output: "combine_model_convolution_output33"
    op_type: "Conv"
    attribute {
      name: "auto_pad"
      s: "SAME_UPPER"
      type: STRING
    }
    attribute {
      name: "dilations"
      ints: 1
      ints: 1
      type: INTS
    }
    attribute {
      name: "group"
      i: 1
      type: INT
    }
    attribute {
      name: "kernel_shape"
      ints: 3
      ints: 3
      type: INTS
    }
    attribute {
      name: "strides"
      ints: 1
      ints: 1
      type: INTS
    }
  }
  node {
    input: "combine_model_convolution_output33"
    output: "combine_model_leaky_re_lu_39_leakyrelu_0"
    name: "leaky_re_lu_39"
    op_type: "LeakyRelu"
    attribute {
      name: "alpha"
      f: 0.10000000149011612
      type: FLOAT
    }
    doc_string: ""
    domain: ""
  }
  node {
    input: "combine_model_add_16_add_0"
    input: "combine_model_leaky_re_lu_39_leakyrelu_0"
    output: "combine_model_add_17_add_0"
    name: "Add8"
    op_type: "Add"
    domain: ""
  }
  node {
    input: "combine_model_add_17_add_0"
    input: "W42"
    input: "combine_model_convolution_output42.opt.bias"
    output: "combine_model_convolution_output42"
    op_type: "Conv"
    attribute {
      name: "auto_pad"
      s: "SAME_UPPER"
      type: STRING
    }
    attribute {
      name: "dilations"
      ints: 1
      ints: 1
      type: INTS
    }
    attribute {
      name: "group"
      i: 1
      type: INT
    }
    attribute {
      name: "kernel_shape"
      ints: 1
      ints: 1
      type: INTS
    }
    attribute {
      name: "strides"
      ints: 1
      ints: 1
      type: INTS
    }
  }
  node {
    input: "combine_model_convolution_output42"
    output: "combine_model_leaky_re_lu_40_leakyrelu_0"
    name: "leaky_re_lu_40"
    op_type: "LeakyRelu"
    attribute {
      name: "alpha"
      f: 0.10000000149011612
      type: FLOAT
    }
    doc_string: ""
    domain: ""
  }
  node {
    input: "combine_model_leaky_re_lu_40_leakyrelu_0"
    input: "W28"
    input: "combine_model_convolution_output28.opt.bias"
    output: "combine_model_convolution_output28"
    op_type: "Conv"
    attribute {
      name: "auto_pad"
      s: "SAME_UPPER"
      type: STRING
    }
    attribute {
      name: "dilations"
      ints: 1
      ints: 1
      type: INTS
    }
    attribute {
      name: "group"
      i: 1
      type: INT
    }
    attribute {
      name: "kernel_shape"
      ints: 3
      ints: 3
      type: INTS
    }
    attribute {
      name: "strides"
      ints: 1
      ints: 1
      type: INTS
    }
  }
  node {
    input: "combine_model_convolution_output28"
    output: "combine_model_leaky_re_lu_41_leakyrelu_0"
    name: "leaky_re_lu_41"
    op_type: "LeakyRelu"
    attribute {
      name: "alpha"
      f: 0.10000000149011612
      type: FLOAT
    }
    doc_string: ""
    domain: ""
  }
  node {
    input: "combine_model_add_17_add_0"
    input: "combine_model_leaky_re_lu_41_leakyrelu_0"
    output: "combine_model_add_18_add_0"
    name: "Add5"
    op_type: "Add"
    domain: ""
  }
  node {
    input: "combine_model_add_18_add_0"
    input: "W37"
    input: "combine_model_convolution_output37.opt.bias"
    output: "combine_model_convolution_output37"
    op_type: "Conv"
    attribute {
      name: "auto_pad"
      s: "SAME_UPPER"
      type: STRING
    }
    attribute {
      name: "dilations"
      ints: 1
      ints: 1
      type: INTS
    }
    attribute {
      name: "group"
      i: 1
      type: INT
    }
    attribute {
      name: "kernel_shape"
      ints: 1
      ints: 1
      type: INTS
    }
    attribute {
      name: "strides"
      ints: 1
      ints: 1
      type: INTS
    }
  }
  node {
    input: "combine_model_convolution_output37"
    output: "combine_model_leaky_re_lu_42_leakyrelu_0"
    name: "leaky_re_lu_42"
    op_type: "LeakyRelu"
    attribute {
      name: "alpha"
      f: 0.10000000149011612
      type: FLOAT
    }
    doc_string: ""
    domain: ""
  }
  node {
    input: "combine_model_leaky_re_lu_42_leakyrelu_0"
    input: "W24"
    input: "combine_model_convolution_output24.opt.bias"
    output: "combine_model_convolution_output24"
    op_type: "Conv"
    attribute {
      name: "auto_pad"
      s: "SAME_UPPER"
      type: STRING
    }
    attribute {
      name: "dilations"
      ints: 1
      ints: 1
      type: INTS
    }
    attribute {
      name: "group"
      i: 1
      type: INT
    }
    attribute {
      name: "kernel_shape"
      ints: 3
      ints: 3
      type: INTS
    }
    attribute {
      name: "strides"
      ints: 1
      ints: 1
      type: INTS
    }
  }
  node {
    input: "combine_model_convolution_output24"
    output: "combine_model_leaky_re_lu_43_leakyrelu_0"
    name: "leaky_re_lu_43"
    op_type: "LeakyRelu"
    attribute {
      name: "alpha"
      f: 0.10000000149011612
      type: FLOAT
    }
    doc_string: ""
    domain: ""
  }
  node {
    input: "combine_model_add_18_add_0"
    input: "combine_model_leaky_re_lu_43_leakyrelu_0"
    output: "combine_model_add_19_add_0"
    name: "Add2"
    op_type: "Add"
    domain: ""
  }
  node {
    input: "combine_model_add_19_add_0"
    input: "W30"
    input: "combine_model_convolution_output30.opt.bias"
    output: "combine_model_convolution_output30"
    op_type: "Conv"
    attribute {
      name: "auto_pad"
      s: "NOTSET"
      type: STRING
    }
    attribute {
      name: "dilations"
      ints: 1
      ints: 1
      type: INTS
    }
    attribute {
      name: "group"
      i: 1
      type: INT
    }
    attribute {
      name: "kernel_shape"
      ints: 3
      ints: 3
      type: INTS
    }
    attribute {
      name: "pads"
      ints: 1
      ints: 1
      ints: 0
      ints: 0
      type: INTS
    }
    attribute {
      name: "strides"
      ints: 2
      ints: 2
      type: INTS
    }
  }
  node {
    input: "combine_model_convolution_output30"
    output: "combine_model_leaky_re_lu_44_leakyrelu_0"
    name: "leaky_re_lu_44"
    op_type: "LeakyRelu"
    attribute {
      name: "alpha"
      f: 0.10000000149011612
      type: FLOAT
    }
    doc_string: ""
    domain: ""
  }
  node {
    input: "combine_model_leaky_re_lu_44_leakyrelu_0"
    input: "W45"
    input: "combine_model_convolution_output45.opt.bias"
    output: "combine_model_convolution_output45"
    op_type: "Conv"
    attribute {
      name: "auto_pad"
      s: "SAME_UPPER"
      type: STRING
    }
    attribute {
      name: "dilations"
      ints: 1
      ints: 1
      type: INTS
    }
    attribute {
      name: "group"
      i: 1
      type: INT
    }
    attribute {
      name: "kernel_shape"
      ints: 1
      ints: 1
      type: INTS
    }
    attribute {
      name: "strides"
      ints: 1
      ints: 1
      type: INTS
    }
  }
  node {
    input: "combine_model_convolution_output45"
    output: "combine_model_leaky_re_lu_45_leakyrelu_0"
    name: "leaky_re_lu_45"
    op_type: "LeakyRelu"
    attribute {
      name: "alpha"
      f: 0.10000000149011612
      type: FLOAT
    }
    doc_string: ""
    domain: ""
  }
  node {
    input: "combine_model_leaky_re_lu_45_leakyrelu_0"
    input: "W31"
    input: "combine_model_convolution_output31.opt.bias"
    output: "combine_model_convolution_output31"
    op_type: "Conv"
    attribute {
      name: "auto_pad"
      s: "SAME_UPPER"
      type: STRING
    }
    attribute {
      name: "dilations"
      ints: 1
      ints: 1
      type: INTS
    }
    attribute {
      name: "group"
      i: 1
      type: INT
    }
    attribute {
      name: "kernel_shape"
      ints: 3
      ints: 3
      type: INTS
    }
    attribute {
      name: "strides"
      ints: 1
      ints: 1
      type: INTS
    }
  }
  node {
    input: "combine_model_convolution_output31"
    output: "combine_model_leaky_re_lu_46_leakyrelu_0"
    name: "leaky_re_lu_46"
    op_type: "LeakyRelu"
    attribute {
      name: "alpha"
      f: 0.10000000149011612
      type: FLOAT
    }
    doc_string: ""
    domain: ""
  }
  node {
    input: "combine_model_leaky_re_lu_44_leakyrelu_0"
    input: "combine_model_leaky_re_lu_46_leakyrelu_0"
    output: "combine_model_add_20_add_0"
    name: "Add7"
    op_type: "Add"
    domain: ""
  }
  node {
    input: "combine_model_add_20_add_0"
    input: "W40"
    input: "combine_model_convolution_output40.opt.bias"
    output: "combine_model_convolution_output40"
    op_type: "Conv"
    attribute {
      name: "auto_pad"
      s: "SAME_UPPER"
      type: STRING
    }
    attribute {
      name: "dilations"
      ints: 1
      ints: 1
      type: INTS
    }
    attribute {
      name: "group"
      i: 1
      type: INT
    }
    attribute {
      name: "kernel_shape"
      ints: 1
      ints: 1
      type: INTS
    }
    attribute {
      name: "strides"
      ints: 1
      ints: 1
      type: INTS
    }
  }
  node {
    input: "combine_model_convolution_output40"
    output: "combine_model_leaky_re_lu_47_leakyrelu_0"
    name: "leaky_re_lu_47"
    op_type: "LeakyRelu"
    attribute {
      name: "alpha"
      f: 0.10000000149011612
      type: FLOAT
    }
    doc_string: ""
    domain: ""
  }
  node {
    input: "combine_model_leaky_re_lu_47_leakyrelu_0"
    input: "W27"
    input: "combine_model_convolution_output27.opt.bias"
    output: "combine_model_convolution_output27"
    op_type: "Conv"
    attribute {
      name: "auto_pad"
      s: "SAME_UPPER"
      type: STRING
    }
    attribute {
      name: "dilations"
      ints: 1
      ints: 1
      type: INTS
    }
    attribute {
      name: "group"
      i: 1
      type: INT
    }
    attribute {
      name: "kernel_shape"
      ints: 3
      ints: 3
      type: INTS
    }
    attribute {
      name: "strides"
      ints: 1
      ints: 1
      type: INTS
    }
  }
  node {
    input: "combine_model_convolution_output27"
    output: "combine_model_leaky_re_lu_48_leakyrelu_0"
    name: "leaky_re_lu_48"
    op_type: "LeakyRelu"
    attribute {
      name: "alpha"
      f: 0.10000000149011612
      type: FLOAT
    }
    doc_string: ""
    domain: ""
  }
  node {
    input: "combine_model_add_20_add_0"
    input: "combine_model_leaky_re_lu_48_leakyrelu_0"
    output: "combine_model_add_21_add_0"
    name: "Add4"
    op_type: "Add"
    domain: ""
  }
  node {
    input: "combine_model_add_21_add_0"
    input: "W35"
    input: "combine_model_convolution_output35.opt.bias"
    output: "combine_model_convolution_output35"
    op_type: "Conv"
    attribute {
      name: "auto_pad"
      s: "SAME_UPPER"
      type: STRING
    }
    attribute {
      name: "dilations"
      ints: 1
      ints: 1
      type: INTS
    }
    attribute {
      name: "group"
      i: 1
      type: INT
    }
    attribute {
      name: "kernel_shape"
      ints: 1
      ints: 1
      type: INTS
    }
    attribute {
      name: "strides"
      ints: 1
      ints: 1
      type: INTS
    }
  }
  node {
    input: "combine_model_convolution_output35"
    output: "combine_model_leaky_re_lu_49_leakyrelu_0"
    name: "leaky_re_lu_49"
    op_type: "LeakyRelu"
    attribute {
      name: "alpha"
      f: 0.10000000149011612
      type: FLOAT
    }
    doc_string: ""
    domain: ""
  }
  node {
    input: "combine_model_leaky_re_lu_49_leakyrelu_0"
    input: "W22"
    input: "combine_model_convolution_output22.opt.bias"
    output: "combine_model_convolution_output22"
    op_type: "Conv"
    attribute {
      name: "auto_pad"
      s: "SAME_UPPER"
      type: STRING
    }
    attribute {
      name: "dilations"
      ints: 1
      ints: 1
      type: INTS
    }
    attribute {
      name: "group"
      i: 1
      type: INT
    }
    attribute {
      name: "kernel_shape"
      ints: 3
      ints: 3
      type: INTS
    }
    attribute {
      name: "strides"
      ints: 1
      ints: 1
      type: INTS
    }
  }
  node {
    input: "combine_model_convolution_output22"
    output: "combine_model_leaky_re_lu_50_leakyrelu_0"
    name: "leaky_re_lu_50"
    op_type: "LeakyRelu"
    attribute {
      name: "alpha"
      f: 0.10000000149011612
      type: FLOAT
    }
    doc_string: ""
    domain: ""
  }
  node {
    input: "combine_model_add_21_add_0"
    input: "combine_model_leaky_re_lu_50_leakyrelu_0"
    output: "combine_model_add_22_add_0"
    name: "Add1"
    op_type: "Add"
    domain: ""
  }
  node {
    input: "combine_model_add_22_add_0"
    input: "W32"
    input: "combine_model_convolution_output32.opt.bias"
    output: "combine_model_convolution_output32"
    op_type: "Conv"
    attribute {
      name: "auto_pad"
      s: "SAME_UPPER"
      type: STRING
    }
    attribute {
      name: "dilations"
      ints: 1
      ints: 1
      type: INTS
    }
    attribute {
      name: "group"
      i: 1
      type: INT
    }
    attribute {
      name: "kernel_shape"
      ints: 1
      ints: 1
      type: INTS
    }
    attribute {
      name: "strides"
      ints: 1
      ints: 1
      type: INTS
    }
  }
  node {
    input: "combine_model_convolution_output32"
    output: "combine_model_leaky_re_lu_51_leakyrelu_0"
    name: "leaky_re_lu_51"
    op_type: "LeakyRelu"
    attribute {
      name: "alpha"
      f: 0.10000000149011612
      type: FLOAT
    }
    doc_string: ""
    domain: ""
  }
  node {
    input: "combine_model_leaky_re_lu_51_leakyrelu_0"
    input: "W21"
    input: "combine_model_convolution_output21.opt.bias"
    output: "combine_model_convolution_output21"
    op_type: "Conv"
    attribute {
      name: "auto_pad"
      s: "SAME_UPPER"
      type: STRING
    }
    attribute {
      name: "dilations"
      ints: 1
      ints: 1
      type: INTS
    }
    attribute {
      name: "group"
      i: 1
      type: INT
    }
    attribute {
      name: "kernel_shape"
      ints: 3
      ints: 3
      type: INTS
    }
    attribute {
      name: "strides"
      ints: 1
      ints: 1
      type: INTS
    }
  }
  node {
    input: "combine_model_convolution_output21"
    output: "combine_model_leaky_re_lu_52_leakyrelu_0"
    name: "leaky_re_lu_52"
    op_type: "LeakyRelu"
    attribute {
      name: "alpha"
      f: 0.10000000149011612
      type: FLOAT
    }
    doc_string: ""
    domain: ""
  }
  node {
    input: "combine_model_add_22_add_0"
    input: "combine_model_leaky_re_lu_52_leakyrelu_0"
    output: "combine_model_add_23_add_0"
    name: "Add"
    op_type: "Add"
    domain: ""
  }
  node {
    input: "combine_model_add_23_add_0"
    input: "W18"
    input: "combine_model_convolution_output18.opt.bias"
    output: "combine_model_convolution_output18"
    op_type: "Conv"
    attribute {
      name: "auto_pad"
      s: "SAME_UPPER"
      type: STRING
    }
    attribute {
      name: "dilations"
      ints: 1
      ints: 1
      type: INTS
    }
    attribute {
      name: "group"
      i: 1
      type: INT
    }
    attribute {
      name: "kernel_shape"
      ints: 1
      ints: 1
      type: INTS
    }
    attribute {
      name: "strides"
      ints: 1
      ints: 1
      type: INTS
    }
  }
  node {
    input: "combine_model_convolution_output18"
    output: "combine_model_leaky_re_lu_53_leakyrelu_0"
    name: "leaky_re_lu_53"
    op_type: "LeakyRelu"
    attribute {
      name: "alpha"
      f: 0.10000000149011612
      type: FLOAT
    }
    doc_string: ""
    domain: ""
  }
  node {
    input: "combine_model_leaky_re_lu_53_leakyrelu_0"
    input: "W15"
    input: "combine_model_convolution_output15.opt.bias"
    output: "combine_model_convolution_output15"
    op_type: "Conv"
    attribute {
      name: "auto_pad"
      s: "SAME_UPPER"
      type: STRING
    }
    attribute {
      name: "dilations"
      ints: 1
      ints: 1
      type: INTS
    }
    attribute {
      name: "group"
      i: 1
      type: INT
    }
    attribute {
      name: "kernel_shape"
      ints: 3
      ints: 3
      type: INTS
    }
    attribute {
      name: "strides"
      ints: 1
      ints: 1
      type: INTS
    }
  }
  node {
    input: "combine_model_convolution_output15"
    output: "combine_model_leaky_re_lu_54_leakyrelu_0"
    name: "leaky_re_lu_54"
    op_type: "LeakyRelu"
    attribute {
      name: "alpha"
      f: 0.10000000149011612
      type: FLOAT
    }
    doc_string: ""
    domain: ""
  }
  node {
    input: "combine_model_leaky_re_lu_54_leakyrelu_0"
    input: "W12"
    input: "combine_model_convolution_output12.opt.bias"
    output: "combine_model_convolution_output12"
    op_type: "Conv"
    attribute {
      name: "auto_pad"
      s: "SAME_UPPER"
      type: STRING
    }
    attribute {
      name: "dilations"
      ints: 1
      ints: 1
      type: INTS
    }
    attribute {
      name: "group"
      i: 1
      type: INT
    }
    attribute {
      name: "kernel_shape"
      ints: 1
      ints: 1
      type: INTS
    }
    attribute {
      name: "strides"
      ints: 1
      ints: 1
      type: INTS
    }
  }
  node {
    input: "combine_model_convolution_output12"
    output: "combine_model_leaky_re_lu_55_leakyrelu_0"
    name: "leaky_re_lu_55"
    op_type: "LeakyRelu"
    attribute {
      name: "alpha"
      f: 0.10000000149011612
      type: FLOAT
    }
    doc_string: ""
    domain: ""
  }
  node {
    input: "combine_model_leaky_re_lu_55_leakyrelu_0"
    input: "W9"
    input: "combine_model_convolution_output9.opt.bias"
    output: "combine_model_convolution_output9"
    op_type: "Conv"
    attribute {
      name: "auto_pad"
      s: "SAME_UPPER"
      type: STRING
    }
    attribute {
      name: "dilations"
      ints: 1
      ints: 1
      type: INTS
    }
    attribute {
      name: "group"
      i: 1
      type: INT
    }
    attribute {
      name: "kernel_shape"
      ints: 3
      ints: 3
      type: INTS
    }
    attribute {
      name: "strides"
      ints: 1
      ints: 1
      type: INTS
    }
  }
  node {
    input: "combine_model_convolution_output9"
    output: "combine_model_leaky_re_lu_56_leakyrelu_0"
    name: "leaky_re_lu_56"
    op_type: "LeakyRelu"
    attribute {
      name: "alpha"
      f: 0.10000000149011612
      type: FLOAT
    }
    doc_string: ""
    domain: ""
  }
  node {
    input: "combine_model_leaky_re_lu_56_leakyrelu_0"
    input: "W6"
    input: "combine_model_convolution_output6.opt.bias"
    output: "combine_model_convolution_output6"
    op_type: "Conv"
    attribute {
      name: "auto_pad"
      s: "SAME_UPPER"
      type: STRING
    }
    attribute {
      name: "dilations"
      ints: 1
      ints: 1
      type: INTS
    }
    attribute {
      name: "group"
      i: 1
      type: INT
    }
    attribute {
      name: "kernel_shape"
      ints: 1
      ints: 1
      type: INTS
    }
    attribute {
      name: "strides"
      ints: 1
      ints: 1
      type: INTS
    }
  }
  node {
    input: "combine_model_convolution_output6"
    output: "combine_model_leaky_re_lu_57_leakyrelu_0"
    name: "leaky_re_lu_57"
    op_type: "LeakyRelu"
    attribute {
      name: "alpha"
      f: 0.10000000149011612
      type: FLOAT
    }
    doc_string: ""
    domain: ""
  }
  node {
    input: "combine_model_leaky_re_lu_57_leakyrelu_0"
    input: "W3"
    input: "combine_model_convolution_output3.opt.bias"
    output: "combine_model_convolution_output3"
    op_type: "Conv"
    attribute {
      name: "auto_pad"
      s: "SAME_UPPER"
      type: STRING
    }
    attribute {
      name: "dilations"
      ints: 1
      ints: 1
      type: INTS
    }
    attribute {
      name: "group"
      i: 1
      type: INT
    }
    attribute {
      name: "kernel_shape"
      ints: 3
      ints: 3
      type: INTS
    }
    attribute {
      name: "strides"
      ints: 1
      ints: 1
      type: INTS
    }
  }
  node {
    input: "combine_model_leaky_re_lu_57_leakyrelu_0"
    input: "W23"
    input: "combine_model_convolution_output23.opt.bias"
    output: "combine_model_convolution_output23"
    op_type: "Conv"
    attribute {
      name: "auto_pad"
      s: "SAME_UPPER"
      type: STRING
    }
    attribute {
      name: "dilations"
      ints: 1
      ints: 1
      type: INTS
    }
    attribute {
      name: "group"
      i: 1
      type: INT
    }
    attribute {
      name: "kernel_shape"
      ints: 1
      ints: 1
      type: INTS
    }
    attribute {
      name: "strides"
      ints: 1
      ints: 1
      type: INTS
    }
  }
  node {
    input: "combine_model_convolution_output3"
    output: "combine_model_leaky_re_lu_58_leakyrelu_0"
    name: "leaky_re_lu_58"
    op_type: "LeakyRelu"
    attribute {
      name: "alpha"
      f: 0.10000000149011612
      type: FLOAT
    }
    doc_string: ""
    domain: ""
  }
  node {
    input: "combine_model_convolution_output23"
    output: "combine_model_leaky_re_lu_59_leakyrelu_0"
    name: "leaky_re_lu_59"
    op_type: "LeakyRelu"
    attribute {
      name: "alpha"
      f: 0.10000000149011612
      type: FLOAT
    }
    doc_string: ""
    domain: ""
  }
  node {
    input: "combine_model_leaky_re_lu_58_leakyrelu_0"
    input: "W"
    input: "B"
    output: "combine_model_convolution_output"
    name: "conv2d_59"
    op_type: "Conv"
    attribute {
      name: "auto_pad"
      s: "SAME_UPPER"
      type: STRING
    }
    attribute {
      name: "dilations"
      ints: 1
      ints: 1
      type: INTS
    }
    attribute {
      name: "group"
      i: 1
      type: INT
    }
    attribute {
      name: "kernel_shape"
      ints: 1
      ints: 1
      type: INTS
    }
    attribute {
      name: "strides"
      ints: 1
      ints: 1
      type: INTS
    }
    doc_string: ""
    domain: ""
  }
  node {
    input: "combine_model_leaky_re_lu_59_leakyrelu_0"
    input: "Resize_scales"
    output: "combine_model_leaky_re_lu_59_leakyrelu_0_permuted_upsampled"
    name: "Resize"
    op_type: "Resize"
    attribute {
      name: "mode"
      s: "nearest"
      type: STRING
    }
    doc_string: ""
    domain: ""
  }
  node {
    input: "combine_model_convolution_output"
    output: "invoke_inline_model_10"
    name: "PushTranspose_1"
    op_type: "Transpose"
    attribute {
      name: "perm"
      ints: 0
      ints: 2
      ints: 3
      ints: 1
      type: INTS
    }
    doc_string: ""
    domain: ""
  }
  node {
    input: "combine_model_leaky_re_lu_59_leakyrelu_0_permuted_upsampled"
    input: "combine_model_add_19_add_0"
    output: "combine_model_concatenate_1_concat_0"
    name: "concatenate_1"
    op_type: "Concat"
    attribute {
      name: "axis"
      i: 1
      type: INT
    }
    doc_string: ""
    domain: ""
  }
  node {
    input: "invoke_inline_model_10"
    output: "combine_model_tfnodes_yolo_evaluation_layer_1_shape_1_0"
    name: "TFNodes/yolo_evaluation_layer_1/Shape_1"
    op_type: "Shape"
    doc_string: ""
    domain: ""
  }
  node {
    input: "invoke_inline_model_10"
    output: "combine_model_tfnodes_yolo_evaluation_layer_1_shape_0"
    name: "TFNodes/yolo_evaluation_layer_1/Shape"
    op_type: "Shape"
    doc_string: ""
    domain: ""
  }
  node {
    input: "combine_model_concatenate_1_concat_0"
    input: "W19"
    input: "combine_model_convolution_output19.opt.bias"
    output: "combine_model_convolution_output19"
    op_type: "Conv"
    attribute {
      name: "auto_pad"
      s: "SAME_UPPER"
      type: STRING
    }
    attribute {
      name: "dilations"
      ints: 1
      ints: 1
      type: INTS
    }
    attribute {
      name: "group"
      i: 1
      type: INT
    }
    attribute {
      name: "kernel_shape"
      ints: 1
      ints: 1
      type: INTS
    }
    attribute {
      name: "strides"
      ints: 1
      ints: 1
      type: INTS
    }
  }
  node {
    input: "combine_model_tfnodes_yolo_evaluation_layer_1_shape_1_0"
    output: "combine_model_tfnodes_yolo_evaluation_layer_1_shape_1__206_0"
    name: "TFNodes/yolo_evaluation_layer_1/Shape_1__206"
    op_type: "Cast"
    attribute {
      name: "to"
      i: 6
      type: INT
    }
  }
  node {
    input: "combine_model_tfnodes_yolo_evaluation_layer_1_shape_0"
    output: "combine_model_tfnodes_yolo_evaluation_layer_1_shape__281_0"
    name: "TFNodes/yolo_evaluation_layer_1/Shape__281"
    op_type: "Cast"
    attribute {
      name: "to"
      i: 6
      type: INT
    }
  }
  node {
    input: "combine_model_tfnodes_yolo_evaluation_layer_1_shape_1__206_0"
    input: "TFNodes/yolo_evaluation_layer_1/strided_slice_1__207"
    input: "TFNodes/yolo_evaluation_layer_1/strided_slice_1__208"
    input: "TFNodes/yolo_evaluation_layer_1/strided_slice_1__209"
    input: "TFNodes/yolo_evaluation_layer_1/strided_slice_1__210"
    output: "combine_model_tfnodes_yolo_evaluation_layer_1_strided_slice_1_0"
    name: "TFNodes/yolo_evaluation_layer_1/strided_slice_1"
    op_type: "Slice"
  }
  node {
    input: "combine_model_tfnodes_yolo_evaluation_layer_1_shape__281_0"
    input: "TFNodes/yolo_evaluation_layer_1/strided_slice__282"
    input: "TFNodes/yolo_evaluation_layer_1/strided_slice__283"
    input: "TFNodes/yolo_evaluation_layer_1/strided_slice__284"
    input: "TFNodes/yolo_evaluation_layer_1/strided_slice__285"
    output: "combine_model_tfnodes_yolo_evaluation_layer_1_strided_slice_0"
    name: "TFNodes/yolo_evaluation_layer_1/strided_slice"
    op_type: "Slice"
  }
  node {
    input: "combine_model_convolution_output19"
    output: "combine_model_leaky_re_lu_60_leakyrelu_0"
    name: "leaky_re_lu_60"
    op_type: "LeakyRelu"
    attribute {
      name: "alpha"
      f: 0.10000000149011612
      type: FLOAT
    }
    doc_string: ""
    domain: ""
  }
  node {
    input: "combine_model_tfnodes_yolo_evaluation_layer_1_strided_slice_1_0"
    input: "TFNodes/yolo_evaluation_layer_1/strided_slice_9__211"
    input: "TFNodes/yolo_evaluation_layer_1/strided_slice_9__212"
    input: "TFNodes/yolo_evaluation_layer_1/strided_slice_9__213"
    input: "TFNodes/yolo_evaluation_layer_1/strided_slice_9__214"
    output: "combine_model_tfnodes_yolo_evaluation_layer_1_strided_slice_9_0"
    name: "TFNodes/yolo_evaluation_layer_1/strided_slice_9"
    op_type: "Slice"
  }
  node {
    input: "combine_model_tfnodes_yolo_evaluation_layer_1_strided_slice_1_0"
    input: "TFNodes/yolo_evaluation_layer_1/strided_slice_7__215"
    input: "TFNodes/yolo_evaluation_layer_1/strided_slice_7__216"
    input: "TFNodes/yolo_evaluation_layer_1/strided_slice_7__217"
    input: "TFNodes/yolo_evaluation_layer_1/strided_slice_7__218"
    output: "combine_model_tfnodes_yolo_evaluation_layer_1_strided_slice_7_0"
    name: "TFNodes/yolo_evaluation_layer_1/strided_slice_7"
    op_type: "Slice"
  }
  node {
    input: "combine_model_tfnodes_yolo_evaluation_layer_1_strided_slice_1_0"
    input: "TFNodes/yolo_evaluation_layer_1/strided_slice_6__220"
    input: "TFNodes/yolo_evaluation_layer_1/strided_slice_6__221"
    input: "TFNodes/yolo_evaluation_layer_1/strided_slice_6__222"
    input: "TFNodes/yolo_evaluation_layer_1/strided_slice_6__223"
    output: "combine_model_tfnodes_yolo_evaluation_layer_1_strided_slice_6_0"
    name: "TFNodes/yolo_evaluation_layer_1/strided_slice_6"
    op_type: "Slice"
  }
  node {
    input: "combine_model_tfnodes_yolo_evaluation_layer_1_strided_slice_1_0"
    input: "TFNodes/yolo_evaluation_layer_1/strided_slice_5__231"
    input: "TFNodes/yolo_evaluation_layer_1/strided_slice_5__232"
    input: "TFNodes/yolo_evaluation_layer_1/strided_slice_5__233"
    input: "TFNodes/yolo_evaluation_layer_1/strided_slice_5__234"
    output: "combine_model_tfnodes_yolo_evaluation_layer_1_strided_slice_5_0"
    name: "TFNodes/yolo_evaluation_layer_1/strided_slice_5"
    op_type: "Slice"
  }
  node {
    input: "combine_model_tfnodes_yolo_evaluation_layer_1_strided_slice_1_0"
    input: "TFNodes/yolo_evaluation_layer_1/strided_slice_4__241"
    input: "TFNodes/yolo_evaluation_layer_1/strided_slice_4__242"
    input: "TFNodes/yolo_evaluation_layer_1/strided_slice_4__243"
    input: "TFNodes/yolo_evaluation_layer_1/strided_slice_4__244"
    output: "combine_model_tfnodes_yolo_evaluation_layer_1_strided_slice_4_0"
    name: "TFNodes/yolo_evaluation_layer_1/strided_slice_4"
    op_type: "Slice"
  }
  node {
    input: "combine_model_tfnodes_yolo_evaluation_layer_1_strided_slice_1_0"
    input: "TFNodes/yolo_evaluation_layer_1/strided_slice_3__256"
    input: "TFNodes/yolo_evaluation_layer_1/strided_slice_3__257"
    input: "TFNodes/yolo_evaluation_layer_1/strided_slice_3__258"
    input: "TFNodes/yolo_evaluation_layer_1/strided_slice_3__259"
    output: "combine_model_tfnodes_yolo_evaluation_layer_1_strided_slice_3_0"
    name: "TFNodes/yolo_evaluation_layer_1/strided_slice_3"
    op_type: "Slice"
  }
  node {
    input: "combine_model_tfnodes_yolo_evaluation_layer_1_strided_slice_1_0"
    input: "TFNodes/yolo_evaluation_layer_1/strided_slice_2__266"
    input: "TFNodes/yolo_evaluation_layer_1/strided_slice_2__267"
    input: "TFNodes/yolo_evaluation_layer_1/strided_slice_2__268"
    input: "TFNodes/yolo_evaluation_layer_1/strided_slice_2__269"
    output: "combine_model_tfnodes_yolo_evaluation_layer_1_strided_slice_2_0"
    name: "TFNodes/yolo_evaluation_layer_1/strided_slice_2"
    op_type: "Slice"
  }
  node {
    input: "combine_model_tfnodes_yolo_evaluation_layer_1_strided_slice_0"
    input: "TFNodes/yolo_evaluation_layer_1/mul/y:0"
    output: "combine_model_tfnodes_yolo_evaluation_layer_1_mul_0"
    name: "TFNodes/yolo_evaluation_layer_1/mul"
    op_type: "Mul"
  }
  node {
    input: "combine_model_leaky_re_lu_60_leakyrelu_0"
    input: "W16"
    input: "combine_model_convolution_output16.opt.bias"
    output: "combine_model_convolution_output16"
    op_type: "Conv"
    attribute {
      name: "auto_pad"
      s: "SAME_UPPER"
      type: STRING
    }
    attribute {
      name: "dilations"
      ints: 1
      ints: 1
      type: INTS
    }
    attribute {
      name: "group"
      i: 1
      type: INT
    }
    attribute {
      name: "kernel_shape"
      ints: 3
      ints: 3
      type: INTS
    }
    attribute {
      name: "strides"
      ints: 1
      ints: 1
      type: INTS
    }
  }
  node {
    input: "combine_model_tfnodes_yolo_evaluation_layer_1_strided_slice_5_0"
    input: "TFNodes/yolo_evaluation_layer_1/Tile_1/multiples/1:0"
    input: "TFNodes/yolo_evaluation_layer_1/Tile_1/multiples/2:0"
    input: "TFNodes/yolo_evaluation_layer_1/Tile_1/multiples/3:0"
    output: "combine_model_tfnodes_yolo_evaluation_layer_1_tile_1_multiples_concat__240_0"
    name: "TFNodes/yolo_evaluation_layer_1/Tile_1/multiples_Concat__240"
    op_type: "Concat"
    attribute {
      name: "axis"
      i: 0
      type: INT
    }
    doc_string: ""
    domain: ""
  }
  node {
    input: "TFNodes/yolo_evaluation_layer_1/Tile/multiples/0:0"
    input: "combine_model_tfnodes_yolo_evaluation_layer_1_strided_slice_3_0"
    input: "TFNodes/yolo_evaluation_layer_1/Tile/multiples/2:0"
    input: "TFNodes/yolo_evaluation_layer_1/Tile/multiples/3:0"
    output: "combine_model_tfnodes_yolo_evaluation_layer_1_tile_multiples_concat__265_0"
    name: "TFNodes/yolo_evaluation_layer_1/Tile/multiples_Concat__265"
    op_type: "Concat"
    attribute {
      name: "axis"
      i: 0
      type: INT
    }
    doc_string: ""
    domain: ""
  }
  node {
    input: "TFNodes/yolo_evaluation_layer_1/Reshape_3/shape/0:0"
    input: "combine_model_tfnodes_yolo_evaluation_layer_1_strided_slice_6_0"
    input: "combine_model_tfnodes_yolo_evaluation_layer_1_strided_slice_7_0"
    input: "TFNodes/yolo_evaluation_layer_1/Reshape_3/shape/3:0"
    input: "TFNodes/yolo_evaluation_layer_1/Reshape_3/shape/4:0"
    output: "combine_model_tfnodes_yolo_evaluation_layer_1_reshape_3_shape_concat__230_0"
    name: "TFNodes/yolo_evaluation_layer_1/Reshape_3/shape_Concat__230"
    op_type: "Concat"
    attribute {
      name: "axis"
      i: 0
      type: INT
    }
    doc_string: ""
    domain: ""
  }
  node {
    input: "combine_model_tfnodes_yolo_evaluation_layer_1_strided_slice_9_0"
    output: "combine_model_tfnodes_yolo_evaluation_layer_1_cast_1_0"
    name: "TFNodes/yolo_evaluation_layer_1/Cast_1"
    op_type: "Cast"
    attribute {
      name: "to"
      i: 1
      type: INT
    }
  }
  node {
    input: "combine_model_tfnodes_yolo_evaluation_layer_1_mul_0"
    input: "TFNodes/yolo_evaluation_layer_1/strided_slice_49__286"
    input: "TFNodes/yolo_evaluation_layer_1/strided_slice_49__287"
    input: "TFNodes/yolo_evaluation_layer_1/strided_slice_49__288"
    input: "TFNodes/yolo_evaluation_layer_1/strided_slice_49__289"
    output: "combine_model_tfnodes_yolo_evaluation_layer_1_strided_slice_49_0"
    name: "TFNodes/yolo_evaluation_layer_1/strided_slice_49"
    op_type: "Slice"
  }
  node {
    input: "combine_model_tfnodes_yolo_evaluation_layer_1_mul_0"
    input: "TFNodes/yolo_evaluation_layer_1/strided_slice_30__294"
    input: "TFNodes/yolo_evaluation_layer_1/strided_slice_30__295"
    input: "TFNodes/yolo_evaluation_layer_1/strided_slice_30__296"
    input: "TFNodes/yolo_evaluation_layer_1/strided_slice_30__297"
    output: "combine_model_tfnodes_yolo_evaluation_layer_1_strided_slice_30_0"
    name: "TFNodes/yolo_evaluation_layer_1/strided_slice_30"
    op_type: "Slice"
  }
  node {
    input: "combine_model_tfnodes_yolo_evaluation_layer_1_mul_0"
    input: "TFNodes/yolo_evaluation_layer_1/strided_slice_11__302"
    input: "TFNodes/yolo_evaluation_layer_1/strided_slice_11__303"
    input: "TFNodes/yolo_evaluation_layer_1/strided_slice_11__304"
    input: "TFNodes/yolo_evaluation_layer_1/strided_slice_11__305"
    output: "combine_model_tfnodes_yolo_evaluation_layer_1_strided_slice_11_0"
    name: "TFNodes/yolo_evaluation_layer_1/strided_slice_11"
    op_type: "Slice"
  }
  node {
    input: "combine_model_tfnodes_yolo_evaluation_layer_1_mul_0"
    output: "combine_model_tfnodes_yolo_evaluation_layer_1_cast_7_0"
    name: "TFNodes/yolo_evaluation_layer_1/Cast_7"
    op_type: "Cast"
    attribute {
      name: "to"
      i: 1
      type: INT
    }
  }
  node {
    input: "combine_model_tfnodes_yolo_evaluation_layer_1_tile_1_multiples_concat__240_0"
    output: "combine_model_tfnodes_yolo_evaluation_layer_1_tile_1__255_0"
    name: "TFNodes/yolo_evaluation_layer_1/Tile_1__255"
    op_type: "Cast"
    attribute {
      name: "to"
      i: 7
      type: INT
    }
  }
  node {
    input: "combine_model_tfnodes_yolo_evaluation_layer_1_tile_multiples_concat__265_0"
    output: "combine_model_tfnodes_yolo_evaluation_layer_1_tile__280_0"
    name: "TFNodes/yolo_evaluation_layer_1/Tile__280"
    op_type: "Cast"
    attribute {
      name: "to"
      i: 7
      type: INT
    }
  }
  node {
    input: "combine_model_tfnodes_yolo_evaluation_layer_1_reshape_3_shape_concat__230_0"
    output: "combine_model_tfnodes_yolo_evaluation_layer_1_reshape_3__352_0"
    name: "TFNodes/yolo_evaluation_layer_1/Reshape_3__352"
    op_type: "Cast"
    attribute {
      name: "to"
      i: 7
      type: INT
    }
  }
  node {
    input: "combine_model_tfnodes_yolo_evaluation_layer_1_cast_7_0"
    input: "combine_model_tfnodes_yolo_evaluation_layer_1_squeeze_0"
    output: "combine_model_tfnodes_yolo_evaluation_layer_1_truediv_10_0"
    name: "TFNodes/yolo_evaluation_layer_1/truediv_10"
    op_type: "Div"
  }
  node {
    input: "combine_model_tfnodes_yolo_evaluation_layer_1_cast_7_0"
    input: "combine_model_tfnodes_yolo_evaluation_layer_1_squeeze_0"
    output: "combine_model_tfnodes_yolo_evaluation_layer_1_truediv_2_0"
    name: "TFNodes/yolo_evaluation_layer_1/truediv_2"
    op_type: "Div"
    doc_string: ""
    domain: ""
  }
  node {
    input: "combine_model_tfnodes_yolo_evaluation_layer_1_cast_7_0"
    input: "combine_model_tfnodes_yolo_evaluation_layer_1_squeeze_0"
    output: "combine_model_tfnodes_yolo_evaluation_layer_1_truediv_18_0"
    name: "TFNodes/yolo_evaluation_layer_1/truediv_18"
    op_type: "Div"
    doc_string: ""
    domain: ""
  }
  node {
    input: "combine_model_tfnodes_yolo_evaluation_layer_1_strided_slice_49_0"
    output: "combine_model_tfnodes_yolo_evaluation_layer_1_cast_10_0"
    name: "TFNodes/yolo_evaluation_layer_1/Cast_10"
    op_type: "Cast"
    attribute {
      name: "to"
      i: 1
      type: INT
    }
  }
  node {
    input: "combine_model_tfnodes_yolo_evaluation_layer_1_strided_slice_30_0"
    output: "combine_model_tfnodes_yolo_evaluation_layer_1_cast_6_0"
    name: "TFNodes/yolo_evaluation_layer_1/Cast_6"
    op_type: "Cast"
    attribute {
      name: "to"
      i: 1
      type: INT
    }
  }
  node {
    input: "combine_model_tfnodes_yolo_evaluation_layer_1_strided_slice_11_0"
    output: "combine_model_tfnodes_yolo_evaluation_layer_1_cast_2_0"
    name: "TFNodes/yolo_evaluation_layer_1/Cast_2"
    op_type: "Cast"
    attribute {
      name: "to"
      i: 1
      type: INT
    }
  }
  node {
    input: "combine_model_convolution_output16"
    output: "combine_model_leaky_re_lu_61_leakyrelu_0"
    name: "leaky_re_lu_61"
    op_type: "LeakyRelu"
    attribute {
      name: "alpha"
      f: 0.10000000149011612
      type: FLOAT
    }
    doc_string: ""
    domain: ""
  }
  node {
    input: "invoke_inline_model_10"
    input: "combine_model_tfnodes_yolo_evaluation_layer_1_reshape_3__352_0"
    output: "combine_model_tfnodes_yolo_evaluation_layer_1_reshape_3_0"
    name: "TFNodes/yolo_evaluation_layer_1/Reshape_3"
    op_type: "Reshape"
    doc_string: ""
    domain: ""
  }
  node {
    input: "combine_model_tfnodes_yolo_evaluation_layer_1_truediv_10_0"
    output: "combine_model_tfnodes_yolo_evaluation_layer_1_min_1_0"
    name: "TFNodes/yolo_evaluation_layer_1/Min_1"
    op_type: "ReduceMin"
    attribute {
      name: "axes"
      ints: 0
      type: INTS
    }
    attribute {
      name: "keepdims"
      i: 0
      type: INT
    }
  }
  node {
    input: "combine_model_tfnodes_yolo_evaluation_layer_1_truediv_2_0"
    output: "combine_model_tfnodes_yolo_evaluation_layer_1_min_0"
    name: "TFNodes/yolo_evaluation_layer_1/Min"
    op_type: "ReduceMin"
    attribute {
      name: "axes"
      ints: 0
      type: INTS
    }
    attribute {
      name: "keepdims"
      i: 0
      type: INT
    }
  }
  node {
    input: "combine_model_tfnodes_yolo_evaluation_layer_1_truediv_18_0"
    output: "combine_model_tfnodes_yolo_evaluation_layer_1_min_2_0"
    name: "TFNodes/yolo_evaluation_layer_1/Min_2"
    op_type: "ReduceMin"
    attribute {
      name: "axes"
      ints: 0
      type: INTS
    }
    attribute {
      name: "keepdims"
      i: 0
      type: INT
    }
  }
  node {
    input: "combine_model_tfnodes_yolo_evaluation_layer_1_strided_slice_4_0"
    output: "combine_model_tfnodes_yolo_evaluation_layer_1_arange_1__246_cast_diff_0"
    name: "TFNodes/yolo_evaluation_layer_1/arange_1__246_cast_diff"
    op_type: "Cast"
    attribute {
      name: "to"
      i: 1
      type: INT
    }
    domain: ""
  }
  node {
    input: "combine_model_tfnodes_yolo_evaluation_layer_1_strided_slice_2_0"
    output: "combine_model_tfnodes_yolo_evaluation_layer_1_arange__271_cast_diff_0"
    name: "TFNodes/yolo_evaluation_layer_1/arange__271_cast_diff"
    op_type: "Cast"
    attribute {
      name: "to"
      i: 1
      type: INT
    }
    domain: ""
  }
  node {
    input: "combine_model_leaky_re_lu_61_leakyrelu_0"
    input: "W13"
    input: "combine_model_convolution_output13.opt.bias"
    output: "combine_model_convolution_output13"
    op_type: "Conv"
    attribute {
      name: "auto_pad"
      s: "SAME_UPPER"
      type: STRING
    }
    attribute {
      name: "dilations"
      ints: 1
      ints: 1
      type: INTS
    }
    attribute {
      name: "group"
      i: 1
      type: INT
    }
    attribute {
      name: "kernel_shape"
      ints: 1
      ints: 1
      type: INTS
    }
    attribute {
      name: "strides"
      ints: 1
      ints: 1
      type: INTS
    }
  }
  node {
    input: "combine_model_tfnodes_yolo_evaluation_layer_1_reshape_3_0"
    input: "TFNodes/yolo_evaluation_layer_1/strided_slice_8__353"
    input: "TFNodes/yolo_evaluation_layer_1/strided_slice_8__354"
    input: "TFNodes/yolo_evaluation_layer_1/strided_slice_8__355"
    input: "TFNodes/yolo_evaluation_layer_1/strided_slice_8__356"
    output: "combine_model_tfnodes_yolo_evaluation_layer_1_strided_slice_8_0"
    name: "TFNodes/yolo_evaluation_layer_1/strided_slice_8"
    op_type: "Slice"
  }
  node {
    input: "combine_model_tfnodes_yolo_evaluation_layer_1_reshape_3_0"
    input: "TFNodes/yolo_evaluation_layer_1/strided_slice_13__361"
    input: "TFNodes/yolo_evaluation_layer_1/strided_slice_13__362"
    input: "TFNodes/yolo_evaluation_layer_1/strided_slice_13__363"
    input: "TFNodes/yolo_evaluation_layer_1/strided_slice_13__364"
    output: "combine_model_tfnodes_yolo_evaluation_layer_1_strided_slice_13_0"
    name: "TFNodes/yolo_evaluation_layer_1/strided_slice_13"
    op_type: "Slice"
  }
  node {
    input: "combine_model_tfnodes_yolo_evaluation_layer_1_reshape_3_0"
    input: "TFNodes/yolo_evaluation_layer_1/strided_slice_12__365"
    input: "TFNodes/yolo_evaluation_layer_1/strided_slice_12__366"
    input: "TFNodes/yolo_evaluation_layer_1/strided_slice_12__367"
    input: "TFNodes/yolo_evaluation_layer_1/strided_slice_12__368"
    output: "combine_model_tfnodes_yolo_evaluation_layer_1_strided_slice_12_0"
    name: "TFNodes/yolo_evaluation_layer_1/strided_slice_12"
    op_type: "Slice"
  }
  node {
    input: "combine_model_tfnodes_yolo_evaluation_layer_1_reshape_3_0"
    input: "TFNodes/yolo_evaluation_layer_1/strided_slice_10__370"
    input: "TFNodes/yolo_evaluation_layer_1/strided_slice_10__371"
    input: "TFNodes/yolo_evaluation_layer_1/strided_slice_10__372"
    input: "TFNodes/yolo_evaluation_layer_1/strided_slice_10__373"
    output: "combine_model_tfnodes_yolo_evaluation_layer_1_strided_slice_10_0"
    name: "TFNodes/yolo_evaluation_layer_1/strided_slice_10"
    op_type: "Slice"
  }
  node {
    input: "combine_model_tfnodes_yolo_evaluation_layer_1_squeeze_0"
    input: "combine_model_tfnodes_yolo_evaluation_layer_1_min_1_0"
    output: "combine_model_tfnodes_yolo_evaluation_layer_1_mul_8_0"
    name: "TFNodes/yolo_evaluation_layer_1/mul_8"
    op_type: "Mul"
  }
  node {
    input: "combine_model_tfnodes_yolo_evaluation_layer_1_squeeze_0"
    input: "combine_model_tfnodes_yolo_evaluation_layer_1_min_0"
    output: "combine_model_tfnodes_yolo_evaluation_layer_1_mul_2_0"
    name: "TFNodes/yolo_evaluation_layer_1/mul_2"
    op_type: "Mul"
  }
  node {
    input: "combine_model_tfnodes_yolo_evaluation_layer_1_squeeze_0"
    input: "combine_model_tfnodes_yolo_evaluation_layer_1_min_2_0"
    output: "combine_model_tfnodes_yolo_evaluation_layer_1_mul_14_0"
    name: "TFNodes/yolo_evaluation_layer_1/mul_14"
    op_type: "Mul"
  }
  node {
    input: "combine_model_tfnodes_yolo_evaluation_layer_1_arange_1__246_cast_diff_0"
    output: "combine_model_tfnodes_yolo_evaluation_layer_1_arange_1__246_ceil_0"
    name: "TFNodes/yolo_evaluation_layer_1/arange_1__246_ceil"
    op_type: "Ceil"
    domain: ""
  }
  node {
    input: "combine_model_tfnodes_yolo_evaluation_layer_1_arange__271_cast_diff_0"
    output: "combine_model_tfnodes_yolo_evaluation_layer_1_arange__271_ceil_0"
    name: "TFNodes/yolo_evaluation_layer_1/arange__271_ceil"
    op_type: "Ceil"
    domain: ""
  }
  node {
    input: "combine_model_tfnodes_yolo_evaluation_layer_1_mul_2_0"
    input: "TFNodes/yolo_evaluation_layer_1/Round__327"
    output: "combine_model_tfnodes_yolo_evaluation_layer_1_round__329_0"
    name: "Add__330"
    op_type: "Add"
    domain: ""
  }
  node {
    input: "combine_model_tfnodes_yolo_evaluation_layer_1_mul_14_0"
    input: "TFNodes/yolo_evaluation_layer_1/Round_2__331"
    output: "combine_model_tfnodes_yolo_evaluation_layer_1_round_2__333_0"
    name: "Add__334"
    op_type: "Add"
    domain: ""
  }
  node {
    input: "combine_model_tfnodes_yolo_evaluation_layer_1_mul_8_0"
    input: "TFNodes/yolo_evaluation_layer_1/Round_1__306"
    output: "combine_model_tfnodes_yolo_evaluation_layer_1_round_1__308_0"
    name: "Add__309"
    op_type: "Add"
    domain: ""
  }
  node {
    input: "combine_model_tfnodes_yolo_evaluation_layer_1_strided_slice_8_0"
    output: "combine_model_tfnodes_yolo_evaluation_layer_1_sigmoid_0"
    name: "TFNodes/yolo_evaluation_layer_1/Sigmoid"
    op_type: "Sigmoid"
  }
  node {
    input: "combine_model_tfnodes_yolo_evaluation_layer_1_strided_slice_13_0"
    output: "combine_model_tfnodes_yolo_evaluation_layer_1_sigmoid_2_0"
    name: "TFNodes/yolo_evaluation_layer_1/Sigmoid_2"
    op_type: "Sigmoid"
  }
  node {
    input: "combine_model_tfnodes_yolo_evaluation_layer_1_strided_slice_12_0"
    output: "combine_model_tfnodes_yolo_evaluation_layer_1_sigmoid_1_0"
    name: "TFNodes/yolo_evaluation_layer_1/Sigmoid_1"
    op_type: "Sigmoid"
  }
  node {
    input: "combine_model_tfnodes_yolo_evaluation_layer_1_strided_slice_10_0"
    output: "combine_model_tfnodes_yolo_evaluation_layer_1_exp_0"
    name: "TFNodes/yolo_evaluation_layer_1/Exp"
    op_type: "Exp"
  }
  node {
    input: "combine_model_convolution_output13"
    output: "combine_model_leaky_re_lu_62_leakyrelu_0"
    name: "leaky_re_lu_62"
    op_type: "LeakyRelu"
    attribute {
      name: "alpha"
      f: 0.10000000149011612
      type: FLOAT
    }
    doc_string: ""
    domain: ""
  }
  node {
    input: "combine_model_tfnodes_yolo_evaluation_layer_1_arange_1__246_ceil_0"
    output: "combine_model_tfnodes_yolo_evaluation_layer_1_arange_1__246_trip_cnt_0"
    name: "TFNodes/yolo_evaluation_layer_1/arange_1__246_trip_cnt"
    op_type: "Cast"
    attribute {
      name: "to"
      i: 7
      type: INT
    }
    domain: ""
  }
  node {
    input: "combine_model_tfnodes_yolo_evaluation_layer_1_arange__271_ceil_0"
    output: "combine_model_tfnodes_yolo_evaluation_layer_1_arange__271_trip_cnt_0"
    name: "TFNodes/yolo_evaluation_layer_1/arange__271_trip_cnt"
    op_type: "Cast"
    attribute {
      name: "to"
      i: 7
      type: INT
    }
    domain: ""
  }
  node {
    input: "combine_model_tfnodes_yolo_evaluation_layer_1_round__329_0"
    output: "combine_model_tfnodes_yolo_evaluation_layer_1_round_0"
    name: "TFNodes/yolo_evaluation_layer_1/Round"
    op_type: "Ceil"
  }
  node {
    input: "combine_model_tfnodes_yolo_evaluation_layer_1_round_2__333_0"
    output: "combine_model_tfnodes_yolo_evaluation_layer_1_round_2_0"
    name: "TFNodes/yolo_evaluation_layer_1/Round_2"
    op_type: "Ceil"
  }
  node {
    input: "combine_model_tfnodes_yolo_evaluation_layer_1_round_1__308_0"
    output: "combine_model_tfnodes_yolo_evaluation_layer_1_round_1_0"
    name: "TFNodes/yolo_evaluation_layer_1/Round_1"
    op_type: "Ceil"
  }
  node {
    input: "combine_model_tfnodes_yolo_evaluation_layer_1_sigmoid_1_0"
    input: "combine_model_tfnodes_yolo_evaluation_layer_1_sigmoid_2_0"
    output: "combine_model_tfnodes_yolo_evaluation_layer_1_mul_6_0"
    name: "TFNodes/yolo_evaluation_layer_1/mul_6"
    op_type: "Mul"
  }
  node {
    input: "combine_model_tfnodes_yolo_evaluation_layer_1_exp_0"
    input: "combine_model_tfnodes_yolo_evaluation_layer_1_reshape_0"
    output: "combine_model_tfnodes_yolo_evaluation_layer_1_mul_1_0"
    name: "TFNodes/yolo_evaluation_layer_1/mul_1"
    op_type: "Mul"
  }
  node {
    input: "combine_model_leaky_re_lu_62_leakyrelu_0"
    input: "W10"
    input: "combine_model_convolution_output10.opt.bias"
    output: "combine_model_convolution_output10"
    op_type: "Conv"
    attribute {
      name: "auto_pad"
      s: "SAME_UPPER"
      type: STRING
    }
    attribute {
      name: "dilations"
      ints: 1
      ints: 1
      type: INTS
    }
    attribute {
      name: "group"
      i: 1
      type: INT
    }
    attribute {
      name: "kernel_shape"
      ints: 3
      ints: 3
      type: INTS
    }
    attribute {
      name: "strides"
      ints: 1
      ints: 1
      type: INTS
    }
  }
  node {
    input: "arange_base"
    input: "arange_start"
    input: "combine_model_tfnodes_yolo_evaluation_layer_1_arange_1__246_trip_cnt_0"
    output: "combine_model_tfnodes_yolo_evaluation_layer_1_arange_1__246_loop_1"
    name: "TFNodes/yolo_evaluation_layer_1/arange_1__246_loop"
    op_type: "Slice"
  }
  node {
    input: "arange_base"
    input: "arange_start"
    input: "combine_model_tfnodes_yolo_evaluation_layer_1_arange__271_trip_cnt_0"
    output: "combine_model_tfnodes_yolo_evaluation_layer_1_arange__271_loop_1"
    name: "TFNodes/yolo_evaluation_layer_1/arange__271_loop"
    op_type: "Slice"
  }
  node {
    input: "combine_model_tfnodes_yolo_evaluation_layer_1_cast_7_0"
    input: "combine_model_tfnodes_yolo_evaluation_layer_1_round_0"
    output: "combine_model_tfnodes_yolo_evaluation_layer_1_truediv_5_0"
    name: "TFNodes/yolo_evaluation_layer_1/truediv_5"
    op_type: "Div"
    doc_string: ""
    domain: ""
  }
  node {
    input: "combine_model_tfnodes_yolo_evaluation_layer_1_cast_7_0"
    input: "combine_model_tfnodes_yolo_evaluation_layer_1_round_0"
    output: "combine_model_tfnodes_yolo_evaluation_layer_1_sub_0"
    name: "TFNodes/yolo_evaluation_layer_1/sub"
    op_type: "Sub"
    doc_string: ""
    domain: ""
  }
  node {
    input: "combine_model_tfnodes_yolo_evaluation_layer_1_cast_7_0"
    input: "combine_model_tfnodes_yolo_evaluation_layer_1_round_2_0"
    output: "combine_model_tfnodes_yolo_evaluation_layer_1_truediv_21_0"
    name: "TFNodes/yolo_evaluation_layer_1/truediv_21"
    op_type: "Div"
    doc_string: ""
    domain: ""
  }
  node {
    input: "combine_model_tfnodes_yolo_evaluation_layer_1_cast_7_0"
    input: "combine_model_tfnodes_yolo_evaluation_layer_1_round_2_0"
    output: "combine_model_tfnodes_yolo_evaluation_layer_1_sub_6_0"
    name: "TFNodes/yolo_evaluation_layer_1/sub_6"
    op_type: "Sub"
    doc_string: ""
    domain: ""
  }
  node {
    input: "combine_model_tfnodes_yolo_evaluation_layer_1_cast_7_0"
    input: "combine_model_tfnodes_yolo_evaluation_layer_1_round_1_0"
    output: "combine_model_tfnodes_yolo_evaluation_layer_1_truediv_13_0"
    name: "TFNodes/yolo_evaluation_layer_1/truediv_13"
    op_type: "Div"
  }
  node {
    input: "combine_model_tfnodes_yolo_evaluation_layer_1_cast_7_0"
    input: "combine_model_tfnodes_yolo_evaluation_layer_1_round_1_0"
    output: "combine_model_tfnodes_yolo_evaluation_layer_1_sub_3_0"
    name: "TFNodes/yolo_evaluation_layer_1/sub_3"
    op_type: "Sub"
  }
  node {
    input: "combine_model_tfnodes_yolo_evaluation_layer_1_mul_6_0"
    input: "TFNodes/yolo_evaluation_layer_1/Reshape_5/shape:0"
    output: "combine_model_tfnodes_yolo_evaluation_layer_1_reshape_5_0"
    name: "TFNodes/yolo_evaluation_layer_1/Reshape_5"
    op_type: "Reshape"
  }
  node {
    input: "combine_model_tfnodes_yolo_evaluation_layer_1_mul_1_0"
    input: "combine_model_tfnodes_yolo_evaluation_layer_1_cast_2_0"
    output: "combine_model_tfnodes_yolo_evaluation_layer_1_truediv_1_0"
    name: "TFNodes/yolo_evaluation_layer_1/truediv_1"
    op_type: "Div"
  }
  node {
    input: "combine_model_tfnodes_yolo_evaluation_layer_1_arange_1__246_loop_1"
    input: "TFNodes/yolo_evaluation_layer_1/Reshape_2/shape:0"
    output: "combine_model_tfnodes_yolo_evaluation_layer_1_reshape_2_0"
    name: "TFNodes/yolo_evaluation_layer_1/Reshape_2"
    op_type: "Reshape"
    doc_string: ""
    domain: ""
  }
  node {
    input: "combine_model_tfnodes_yolo_evaluation_layer_1_arange__271_loop_1"
    input: "TFNodes/yolo_evaluation_layer_1/Reshape_1/shape:0"
    output: "combine_model_tfnodes_yolo_evaluation_layer_1_reshape_1_0"
    name: "TFNodes/yolo_evaluation_layer_1/Reshape_1"
    op_type: "Reshape"
    doc_string: ""
    domain: ""
  }
  node {
    input: "combine_model_tfnodes_yolo_evaluation_layer_1_sub_0"
    input: "TFNodes/yolo_evaluation_layer_1/truediv_3/y:0"
    output: "combine_model_tfnodes_yolo_evaluation_layer_1_truediv_3_0"
    name: "TFNodes/yolo_evaluation_layer_1/truediv_3"
    op_type: "Div"
  }
  node {
    input: "combine_model_tfnodes_yolo_evaluation_layer_1_sub_6_0"
    input: "TFNodes/yolo_evaluation_layer_1/truediv_19/y:0"
    output: "combine_model_tfnodes_yolo_evaluation_layer_1_truediv_19_0"
    name: "TFNodes/yolo_evaluation_layer_1/truediv_19"
    op_type: "Div"
  }
  node {
    input: "combine_model_tfnodes_yolo_evaluation_layer_1_sub_3_0"
    input: "TFNodes/yolo_evaluation_layer_1/truediv_11/y:0"
    output: "combine_model_tfnodes_yolo_evaluation_layer_1_truediv_11_0"
    name: "TFNodes/yolo_evaluation_layer_1/truediv_11"
    op_type: "Div"
  }
  node {
    input: "combine_model_tfnodes_yolo_evaluation_layer_1_truediv_1_0"
    input: "TFNodes/yolo_evaluation_layer_1/strided_slice_15__374"
    input: "TFNodes/yolo_evaluation_layer_1/strided_slice_15__375"
    input: "TFNodes/yolo_evaluation_layer_1/strided_slice_15__376"
    input: "TFNodes/yolo_evaluation_layer_1/strided_slice_15__377"
    output: "combine_model_tfnodes_yolo_evaluation_layer_1_strided_slice_15_0"
    name: "TFNodes/yolo_evaluation_layer_1/strided_slice_15"
    op_type: "Slice"
  }
  node {
    input: "combine_model_convolution_output10"
    output: "combine_model_leaky_re_lu_63_leakyrelu_0"
    name: "leaky_re_lu_63"
    op_type: "LeakyRelu"
    attribute {
      name: "alpha"
      f: 0.10000000149011612
      type: FLOAT
    }
    doc_string: ""
    domain: ""
  }
  node {
    input: "combine_model_tfnodes_yolo_evaluation_layer_1_reshape_2_0"
    input: "combine_model_tfnodes_yolo_evaluation_layer_1_tile_1__255_0"
    output: "combine_model_tfnodes_yolo_evaluation_layer_1_tile_1_0"
    name: "TFNodes/yolo_evaluation_layer_1/Tile_1"
    op_type: "Tile"
  }
  node {
    input: "combine_model_tfnodes_yolo_evaluation_layer_1_reshape_1_0"
    input: "combine_model_tfnodes_yolo_evaluation_layer_1_tile__280_0"
    output: "combine_model_tfnodes_yolo_evaluation_layer_1_tile_0"
    name: "TFNodes/yolo_evaluation_layer_1/Tile"
    op_type: "Tile"
  }
  node {
    input: "combine_model_tfnodes_yolo_evaluation_layer_1_strided_slice_15_0"
    input: "combine_model_tfnodes_yolo_evaluation_layer_1_truediv_5_0"
    output: "combine_model_tfnodes_yolo_evaluation_layer_1_mul_4_0"
    name: "TFNodes/yolo_evaluation_layer_1/mul_4"
    op_type: "Mul"
  }
  node {
    input: "combine_model_tfnodes_yolo_evaluation_layer_1_truediv_3_0"
    input: "combine_model_tfnodes_yolo_evaluation_layer_1_cast_7_0"
    output: "combine_model_tfnodes_yolo_evaluation_layer_1_truediv_4_0"
    name: "TFNodes/yolo_evaluation_layer_1/truediv_4"
    op_type: "Div"
    doc_string: ""
    domain: ""
  }
  node {
    input: "combine_model_tfnodes_yolo_evaluation_layer_1_truediv_19_0"
    input: "combine_model_tfnodes_yolo_evaluation_layer_1_cast_7_0"
    output: "combine_model_tfnodes_yolo_evaluation_layer_1_truediv_20_0"
    name: "TFNodes/yolo_evaluation_layer_1/truediv_20"
    op_type: "Div"
    doc_string: ""
    domain: ""
  }
  node {
    input: "combine_model_tfnodes_yolo_evaluation_layer_1_truediv_11_0"
    input: "combine_model_tfnodes_yolo_evaluation_layer_1_cast_7_0"
    output: "combine_model_tfnodes_yolo_evaluation_layer_1_truediv_12_0"
    name: "TFNodes/yolo_evaluation_layer_1/truediv_12"
    op_type: "Div"
  }
  node {
    input: "combine_model_leaky_re_lu_63_leakyrelu_0"
    input: "W7"
    input: "combine_model_convolution_output7.opt.bias"
    output: "combine_model_convolution_output7"
    op_type: "Conv"
    attribute {
      name: "auto_pad"
      s: "SAME_UPPER"
      type: STRING
    }
    attribute {
      name: "dilations"
      ints: 1
      ints: 1
      type: INTS
    }
    attribute {
      name: "group"
      i: 1
      type: INT
    }
    attribute {
      name: "kernel_shape"
      ints: 1
      ints: 1
      type: INTS
    }
    attribute {
      name: "strides"
      ints: 1
      ints: 1
      type: INTS
    }
  }
  node {
    input: "combine_model_tfnodes_yolo_evaluation_layer_1_tile_1_0"
    input: "combine_model_tfnodes_yolo_evaluation_layer_1_tile_0"
    output: "combine_model_tfnodes_yolo_evaluation_layer_1_concat_0"
    name: "TFNodes/yolo_evaluation_layer_1/concat"
    op_type: "Concat"
    attribute {
      name: "axis"
      i: 3
      type: INT
    }
  }
  node {
    input: "combine_model_tfnodes_yolo_evaluation_layer_1_mul_4_0"
    input: "TFNodes/yolo_evaluation_layer_1/truediv_7/y:0"
    output: "combine_model_tfnodes_yolo_evaluation_layer_1_truediv_7_0"
    name: "TFNodes/yolo_evaluation_layer_1/truediv_7"
    op_type: "Div"
  }
  node {
    input: "combine_model_tfnodes_yolo_evaluation_layer_1_mul_4_0"
    input: "TFNodes/yolo_evaluation_layer_1/truediv_6/y:0"
    output: "combine_model_tfnodes_yolo_evaluation_layer_1_truediv_6_0"
    name: "TFNodes/yolo_evaluation_layer_1/truediv_6"
    op_type: "Div"
  }
  node {
    input: "combine_model_tfnodes_yolo_evaluation_layer_1_concat_0"
    output: "combine_model_tfnodes_yolo_evaluation_layer_1_cast_0"
    name: "TFNodes/yolo_evaluation_layer_1/Cast"
    op_type: "Cast"
    attribute {
      name: "to"
      i: 1
      type: INT
    }
  }
  node {
    input: "combine_model_convolution_output7"
    output: "combine_model_leaky_re_lu_64_leakyrelu_0"
    name: "leaky_re_lu_64"
    op_type: "LeakyRelu"
    attribute {
      name: "alpha"
      f: 0.10000000149011612
      type: FLOAT
    }
    doc_string: ""
    domain: ""
  }
  node {
    input: "combine_model_tfnodes_yolo_evaluation_layer_1_sigmoid_0"
    input: "combine_model_tfnodes_yolo_evaluation_layer_1_cast_0"
    output: "combine_model_tfnodes_yolo_evaluation_layer_1_add_0"
    name: "TFNodes/yolo_evaluation_layer_1/add"
    op_type: "Add"
  }
  node {
    input: "combine_model_leaky_re_lu_64_leakyrelu_0"
    input: "W4"
    input: "combine_model_convolution_output4.opt.bias"
    output: "combine_model_convolution_output4"
    op_type: "Conv"
    attribute {
      name: "auto_pad"
      s: "SAME_UPPER"
      type: STRING
    }
    attribute {
      name: "dilations"
      ints: 1
      ints: 1
      type: INTS
    }
    attribute {
      name: "group"
      i: 1
      type: INT
    }
    attribute {
      name: "kernel_shape"
      ints: 3
      ints: 3
      type: INTS
    }
    attribute {
      name: "strides"
      ints: 1
      ints: 1
      type: INTS
    }
  }
  node {
    input: "combine_model_leaky_re_lu_64_leakyrelu_0"
    input: "W25"
    input: "combine_model_convolution_output25.opt.bias"
    output: "combine_model_convolution_output25"
    op_type: "Conv"
    attribute {
      name: "auto_pad"
      s: "SAME_UPPER"
      type: STRING
    }
    attribute {
      name: "dilations"
      ints: 1
      ints: 1
      type: INTS
    }
    attribute {
      name: "group"
      i: 1
      type: INT
    }
    attribute {
      name: "kernel_shape"
      ints: 1
      ints: 1
      type: INTS
    }
    attribute {
      name: "strides"
      ints: 1
      ints: 1
      type: INTS
    }
  }
  node {
    input: "combine_model_tfnodes_yolo_evaluation_layer_1_add_0"
    input: "combine_model_tfnodes_yolo_evaluation_layer_1_cast_1_0"
    output: "combine_model_tfnodes_yolo_evaluation_layer_1_truediv_0"
    name: "TFNodes/yolo_evaluation_layer_1/truediv"
    op_type: "Div"
  }
  node {
    input: "combine_model_tfnodes_yolo_evaluation_layer_1_truediv_0"
    input: "TFNodes/yolo_evaluation_layer_1/strided_slice_14__357"
    input: "TFNodes/yolo_evaluation_layer_1/strided_slice_14__358"
    input: "TFNodes/yolo_evaluation_layer_1/strided_slice_14__359"
    input: "TFNodes/yolo_evaluation_layer_1/strided_slice_14__360"
    output: "combine_model_tfnodes_yolo_evaluation_layer_1_strided_slice_14_0"
    name: "TFNodes/yolo_evaluation_layer_1/strided_slice_14"
    op_type: "Slice"
  }
  node {
    input: "combine_model_convolution_output4"
    output: "combine_model_leaky_re_lu_65_leakyrelu_0"
    name: "leaky_re_lu_65"
    op_type: "LeakyRelu"
    attribute {
      name: "alpha"
      f: 0.10000000149011612
      type: FLOAT
    }
    doc_string: ""
    domain: ""
  }
  node {
    input: "combine_model_convolution_output25"
    output: "combine_model_leaky_re_lu_66_leakyrelu_0"
    name: "leaky_re_lu_66"
    op_type: "LeakyRelu"
    attribute {
      name: "alpha"
      f: 0.10000000149011612
      type: FLOAT
    }
    doc_string: ""
    domain: ""
  }
  node {
    input: "combine_model_tfnodes_yolo_evaluation_layer_1_strided_slice_14_0"
    input: "combine_model_tfnodes_yolo_evaluation_layer_1_truediv_4_0"
    output: "combine_model_tfnodes_yolo_evaluation_layer_1_sub_1_0"
    name: "TFNodes/yolo_evaluation_layer_1/sub_1"
    op_type: "Sub"
  }
  node {
    input: "combine_model_leaky_re_lu_65_leakyrelu_0"
    input: "W1"
    input: "B1"
    output: "combine_model_convolution_output1"
    name: "conv2d_67"
    op_type: "Conv"
    attribute {
      name: "auto_pad"
      s: "SAME_UPPER"
      type: STRING
    }
    attribute {
      name: "dilations"
      ints: 1
      ints: 1
      type: INTS
    }
    attribute {
      name: "group"
      i: 1
      type: INT
    }
    attribute {
      name: "kernel_shape"
      ints: 1
      ints: 1
      type: INTS
    }
    attribute {
      name: "strides"
      ints: 1
      ints: 1
      type: INTS
    }
    doc_string: ""
    domain: ""
  }
  node {
    input: "combine_model_leaky_re_lu_66_leakyrelu_0"
    input: "Resize1_scales"
    output: "combine_model_leaky_re_lu_66_leakyrelu_0_permuted_upsampled"
    name: "Resize1"
    op_type: "Resize"
    attribute {
      name: "mode"
      s: "nearest"
      type: STRING
    }
    doc_string: ""
    domain: ""
  }
  node {
    input: "combine_model_tfnodes_yolo_evaluation_layer_1_sub_1_0"
    input: "combine_model_tfnodes_yolo_evaluation_layer_1_truediv_5_0"
    output: "combine_model_tfnodes_yolo_evaluation_layer_1_mul_3_0"
    name: "TFNodes/yolo_evaluation_layer_1/mul_3"
    op_type: "Mul"
  }
  node {
    input: "combine_model_convolution_output1"
    output: "invoke_inline_model_101"
    name: "PushTranspose_3"
    op_type: "Transpose"
    attribute {
      name: "perm"
      ints: 0
      ints: 2
      ints: 3
      ints: 1
      type: INTS
    }
    doc_string: ""
    domain: ""
  }
  node {
    input: "combine_model_leaky_re_lu_66_leakyrelu_0_permuted_upsampled"
    input: "combine_model_add_11_add_0"
    output: "combine_model_concatenate_2_concat_0"
    name: "concatenate_2"
    op_type: "Concat"
    attribute {
      name: "axis"
      i: 1
      type: INT
    }
    doc_string: ""
    domain: ""
  }
  node {
    input: "combine_model_tfnodes_yolo_evaluation_layer_1_mul_3_0"
    input: "combine_model_tfnodes_yolo_evaluation_layer_1_truediv_6_0"
    output: "combine_model_tfnodes_yolo_evaluation_layer_1_sub_2_0"
    name: "TFNodes/yolo_evaluation_layer_1/sub_2"
    op_type: "Sub"
  }
  node {
    input: "combine_model_tfnodes_yolo_evaluation_layer_1_mul_3_0"
    input: "combine_model_tfnodes_yolo_evaluation_layer_1_truediv_7_0"
    output: "combine_model_tfnodes_yolo_evaluation_layer_1_add_1_0"
    name: "TFNodes/yolo_evaluation_layer_1/add_1"
    op_type: "Add"
  }
  node {
    input: "invoke_inline_model_101"
    output: "combine_model_tfnodes_yolo_evaluation_layer_1_shape_2_0"
    name: "TFNodes/yolo_evaluation_layer_1/Shape_2"
    op_type: "Shape"
    doc_string: ""
    domain: ""
  }
  node {
    input: "combine_model_concatenate_2_concat_0"
    input: "W20"
    input: "combine_model_convolution_output20.opt.bias"
    output: "combine_model_convolution_output20"
    op_type: "Conv"
    attribute {
      name: "auto_pad"
      s: "SAME_UPPER"
      type: STRING
    }
    attribute {
      name: "dilations"
      ints: 1
      ints: 1
      type: INTS
    }
    attribute {
      name: "group"
      i: 1
      type: INT
    }
    attribute {
      name: "kernel_shape"
      ints: 1
      ints: 1
      type: INTS
    }
    attribute {
      name: "strides"
      ints: 1
      ints: 1
      type: INTS
    }
  }
  node {
    input: "combine_model_tfnodes_yolo_evaluation_layer_1_sub_2_0"
    input: "TFNodes/yolo_evaluation_layer_1/strided_slice_17__386"
    input: "TFNodes/yolo_evaluation_layer_1/strided_slice_17__387"
    input: "TFNodes/yolo_evaluation_layer_1/strided_slice_17__388"
    input: "TFNodes/yolo_evaluation_layer_1/strided_slice_17__389"
    output: "combine_model_tfnodes_yolo_evaluation_layer_1_strided_slice_17_0"
    name: "TFNodes/yolo_evaluation_layer_1/strided_slice_17"
    op_type: "Slice"
  }
  node {
    input: "combine_model_tfnodes_yolo_evaluation_layer_1_sub_2_0"
    input: "TFNodes/yolo_evaluation_layer_1/strided_slice_16__390"
    input: "TFNodes/yolo_evaluation_layer_1/strided_slice_16__391"
    input: "TFNodes/yolo_evaluation_layer_1/strided_slice_16__392"
    input: "TFNodes/yolo_evaluation_layer_1/strided_slice_16__393"
    output: "combine_model_tfnodes_yolo_evaluation_layer_1_strided_slice_16_0"
    name: "TFNodes/yolo_evaluation_layer_1/strided_slice_16"
    op_type: "Slice"
  }
  node {
    input: "combine_model_tfnodes_yolo_evaluation_layer_1_add_1_0"
    input: "TFNodes/yolo_evaluation_layer_1/strided_slice_19__378"
    input: "TFNodes/yolo_evaluation_layer_1/strided_slice_19__379"
    input: "TFNodes/yolo_evaluation_layer_1/strided_slice_19__380"
    input: "TFNodes/yolo_evaluation_layer_1/strided_slice_19__381"
    output: "combine_model_tfnodes_yolo_evaluation_layer_1_strided_slice_19_0"
    name: "TFNodes/yolo_evaluation_layer_1/strided_slice_19"
    op_type: "Slice"
  }
  node {
    input: "combine_model_tfnodes_yolo_evaluation_layer_1_add_1_0"
    input: "TFNodes/yolo_evaluation_layer_1/strided_slice_18__382"
    input: "TFNodes/yolo_evaluation_layer_1/strided_slice_18__383"
    input: "TFNodes/yolo_evaluation_layer_1/strided_slice_18__384"
    input: "TFNodes/yolo_evaluation_layer_1/strided_slice_18__385"
    output: "combine_model_tfnodes_yolo_evaluation_layer_1_strided_slice_18_0"
    name: "TFNodes/yolo_evaluation_layer_1/strided_slice_18"
    op_type: "Slice"
  }
  node {
    input: "combine_model_tfnodes_yolo_evaluation_layer_1_shape_2_0"
    output: "combine_model_tfnodes_yolo_evaluation_layer_1_shape_2__109_0"
    name: "TFNodes/yolo_evaluation_layer_1/Shape_2__109"
    op_type: "Cast"
    attribute {
      name: "to"
      i: 6
      type: INT
    }
  }
  node {
    input: "combine_model_tfnodes_yolo_evaluation_layer_1_strided_slice_16_0"
    input: "combine_model_tfnodes_yolo_evaluation_layer_1_strided_slice_17_0"
    input: "combine_model_tfnodes_yolo_evaluation_layer_1_strided_slice_18_0"
    input: "combine_model_tfnodes_yolo_evaluation_layer_1_strided_slice_19_0"
    output: "combine_model_tfnodes_yolo_evaluation_layer_1_concat_1_0"
    name: "TFNodes/yolo_evaluation_layer_1/concat_1"
    op_type: "Concat"
    attribute {
      name: "axis"
      i: 4
      type: INT
    }
  }
  node {
    input: "combine_model_tfnodes_yolo_evaluation_layer_1_shape_2__109_0"
    input: "TFNodes/yolo_evaluation_layer_1/strided_slice_20__110"
    input: "TFNodes/yolo_evaluation_layer_1/strided_slice_20__111"
    input: "TFNodes/yolo_evaluation_layer_1/strided_slice_20__112"
    input: "TFNodes/yolo_evaluation_layer_1/strided_slice_20__113"
    output: "combine_model_tfnodes_yolo_evaluation_layer_1_strided_slice_20_0"
    name: "TFNodes/yolo_evaluation_layer_1/strided_slice_20"
    op_type: "Slice"
  }
  node {
    input: "combine_model_convolution_output20"
    output: "combine_model_leaky_re_lu_67_leakyrelu_0"
    name: "leaky_re_lu_67"
    op_type: "LeakyRelu"
    attribute {
      name: "alpha"
      f: 0.10000000149011612
      type: FLOAT
    }
    doc_string: ""
    domain: ""
  }
  node {
    input: "combine_model_tfnodes_yolo_evaluation_layer_1_concat_1_0"
    input: "combine_model_tfnodes_yolo_evaluation_layer_1_concat_2_0"
    output: "combine_model_tfnodes_yolo_evaluation_layer_1_mul_5_0"
    name: "TFNodes/yolo_evaluation_layer_1/mul_5"
    op_type: "Mul"
  }
  node {
    input: "combine_model_tfnodes_yolo_evaluation_layer_1_strided_slice_20_0"
    input: "TFNodes/yolo_evaluation_layer_1/strided_slice_28__114"
    input: "TFNodes/yolo_evaluation_layer_1/strided_slice_28__115"
    input: "TFNodes/yolo_evaluation_layer_1/strided_slice_28__116"
    input: "TFNodes/yolo_evaluation_layer_1/strided_slice_28__117"
    output: "combine_model_tfnodes_yolo_evaluation_layer_1_strided_slice_28_0"
    name: "TFNodes/yolo_evaluation_layer_1/strided_slice_28"
    op_type: "Slice"
  }
  node {
    input: "combine_model_tfnodes_yolo_evaluation_layer_1_strided_slice_20_0"
    input: "TFNodes/yolo_evaluation_layer_1/strided_slice_26__118"
    input: "TFNodes/yolo_evaluation_layer_1/strided_slice_26__119"
    input: "TFNodes/yolo_evaluation_layer_1/strided_slice_26__120"
    input: "TFNodes/yolo_evaluation_layer_1/strided_slice_26__121"
    output: "combine_model_tfnodes_yolo_evaluation_layer_1_strided_slice_26_0"
    name: "TFNodes/yolo_evaluation_layer_1/strided_slice_26"
    op_type: "Slice"
  }
  node {
    input: "combine_model_tfnodes_yolo_evaluation_layer_1_strided_slice_20_0"
    input: "TFNodes/yolo_evaluation_layer_1/strided_slice_25__123"
    input: "TFNodes/yolo_evaluation_layer_1/strided_slice_25__124"
    input: "TFNodes/yolo_evaluation_layer_1/strided_slice_25__125"
    input: "TFNodes/yolo_evaluation_layer_1/strided_slice_25__126"
    output: "combine_model_tfnodes_yolo_evaluation_layer_1_strided_slice_25_0"
    name: "TFNodes/yolo_evaluation_layer_1/strided_slice_25"
    op_type: "Slice"
  }
  node {
    input: "combine_model_tfnodes_yolo_evaluation_layer_1_strided_slice_20_0"
    input: "TFNodes/yolo_evaluation_layer_1/strided_slice_24__134"
    input: "TFNodes/yolo_evaluation_layer_1/strided_slice_24__135"
    input: "TFNodes/yolo_evaluation_layer_1/strided_slice_24__136"
    input: "TFNodes/yolo_evaluation_layer_1/strided_slice_24__137"
    output: "combine_model_tfnodes_yolo_evaluation_layer_1_strided_slice_24_0"
    name: "TFNodes/yolo_evaluation_layer_1/strided_slice_24"
    op_type: "Slice"
  }
  node {
    input: "combine_model_tfnodes_yolo_evaluation_layer_1_strided_slice_20_0"
    input: "TFNodes/yolo_evaluation_layer_1/strided_slice_23__144"
    input: "TFNodes/yolo_evaluation_layer_1/strided_slice_23__145"
    input: "TFNodes/yolo_evaluation_layer_1/strided_slice_23__146"
    input: "TFNodes/yolo_evaluation_layer_1/strided_slice_23__147"
    output: "combine_model_tfnodes_yolo_evaluation_layer_1_strided_slice_23_0"
    name: "TFNodes/yolo_evaluation_layer_1/strided_slice_23"
    op_type: "Slice"
  }
  node {
    input: "combine_model_tfnodes_yolo_evaluation_layer_1_strided_slice_20_0"
    input: "TFNodes/yolo_evaluation_layer_1/strided_slice_22__159"
    input: "TFNodes/yolo_evaluation_layer_1/strided_slice_22__160"
    input: "TFNodes/yolo_evaluation_layer_1/strided_slice_22__161"
    input: "TFNodes/yolo_evaluation_layer_1/strided_slice_22__162"
    output: "combine_model_tfnodes_yolo_evaluation_layer_1_strided_slice_22_0"
    name: "TFNodes/yolo_evaluation_layer_1/strided_slice_22"
    op_type: "Slice"
  }
  node {
    input: "combine_model_tfnodes_yolo_evaluation_layer_1_strided_slice_20_0"
    input: "TFNodes/yolo_evaluation_layer_1/strided_slice_21__169"
    input: "TFNodes/yolo_evaluation_layer_1/strided_slice_21__170"
    input: "TFNodes/yolo_evaluation_layer_1/strided_slice_21__171"
    input: "TFNodes/yolo_evaluation_layer_1/strided_slice_21__172"
    output: "combine_model_tfnodes_yolo_evaluation_layer_1_strided_slice_21_0"
    name: "TFNodes/yolo_evaluation_layer_1/strided_slice_21"
    op_type: "Slice"
  }
  node {
    input: "combine_model_leaky_re_lu_67_leakyrelu_0"
    input: "W17"
    input: "combine_model_convolution_output17.opt.bias"
    output: "combine_model_convolution_output17"
    op_type: "Conv"
    attribute {
      name: "auto_pad"
      s: "SAME_UPPER"
      type: STRING
    }
    attribute {
      name: "dilations"
      ints: 1
      ints: 1
      type: INTS
    }
    attribute {
      name: "group"
      i: 1
      type: INT
    }
    attribute {
      name: "kernel_shape"
      ints: 3
      ints: 3
      type: INTS
    }
    attribute {
      name: "strides"
      ints: 1
      ints: 1
      type: INTS
    }
  }
  node {
    input: "combine_model_tfnodes_yolo_evaluation_layer_1_mul_5_0"
    input: "TFNodes/yolo_evaluation_layer_1/Reshape_4/shape:0"
    output: "combine_model_tfnodes_yolo_evaluation_layer_1_reshape_4_0"
    name: "TFNodes/yolo_evaluation_layer_1/Reshape_4"
    op_type: "Reshape"
  }
  node {
    input: "combine_model_tfnodes_yolo_evaluation_layer_1_strided_slice_24_0"
    input: "TFNodes/yolo_evaluation_layer_1/Tile_3/multiples/1:0"
    input: "TFNodes/yolo_evaluation_layer_1/Tile_3/multiples/2:0"
    input: "TFNodes/yolo_evaluation_layer_1/Tile_3/multiples/3:0"
    output: "combine_model_tfnodes_yolo_evaluation_layer_1_tile_3_multiples_concat__143_0"
    name: "TFNodes/yolo_evaluation_layer_1/Tile_3/multiples_Concat__143"
    op_type: "Concat"
    attribute {
      name: "axis"
      i: 0
      type: INT
    }
    doc_string: ""
    domain: ""
  }
  node {
    input: "TFNodes/yolo_evaluation_layer_1/Tile_2/multiples/0:0"
    input: "combine_model_tfnodes_yolo_evaluation_layer_1_strided_slice_22_0"
    input: "TFNodes/yolo_evaluation_layer_1/Tile_2/multiples/2:0"
    input: "TFNodes/yolo_evaluation_layer_1/Tile_2/multiples/3:0"
    output: "combine_model_tfnodes_yolo_evaluation_layer_1_tile_2_multiples_concat__168_0"
    name: "TFNodes/yolo_evaluation_layer_1/Tile_2/multiples_Concat__168"
    op_type: "Concat"
    attribute {
      name: "axis"
      i: 0
      type: INT
    }
    doc_string: ""
    domain: ""
  }
  node {
    input: "TFNodes/yolo_evaluation_layer_1/Reshape_9/shape/0:0"
    input: "combine_model_tfnodes_yolo_evaluation_layer_1_strided_slice_25_0"
    input: "combine_model_tfnodes_yolo_evaluation_layer_1_strided_slice_26_0"
    input: "TFNodes/yolo_evaluation_layer_1/Reshape_9/shape/3:0"
    input: "TFNodes/yolo_evaluation_layer_1/Reshape_9/shape/4:0"
    output: "combine_model_tfnodes_yolo_evaluation_layer_1_reshape_9_shape_concat__133_0"
    name: "TFNodes/yolo_evaluation_layer_1/Reshape_9/shape_Concat__133"
    op_type: "Concat"
    attribute {
      name: "axis"
      i: 0
      type: INT
    }
    doc_string: ""
    domain: ""
  }
  node {
    input: "combine_model_tfnodes_yolo_evaluation_layer_1_strided_slice_28_0"
    output: "combine_model_tfnodes_yolo_evaluation_layer_1_cast_5_0"
    name: "TFNodes/yolo_evaluation_layer_1/Cast_5"
    op_type: "Cast"
    attribute {
      name: "to"
      i: 1
      type: INT
    }
  }
  node {
    input: "combine_model_tfnodes_yolo_evaluation_layer_1_tile_3_multiples_concat__143_0"
    output: "combine_model_tfnodes_yolo_evaluation_layer_1_tile_3__158_0"
    name: "TFNodes/yolo_evaluation_layer_1/Tile_3__158"
    op_type: "Cast"
    attribute {
      name: "to"
      i: 7
      type: INT
    }
  }
  node {
    input: "combine_model_tfnodes_yolo_evaluation_layer_1_tile_2_multiples_concat__168_0"
    output: "combine_model_tfnodes_yolo_evaluation_layer_1_tile_2__183_0"
    name: "TFNodes/yolo_evaluation_layer_1/Tile_2__183"
    op_type: "Cast"
    attribute {
      name: "to"
      i: 7
      type: INT
    }
  }
  node {
    input: "combine_model_tfnodes_yolo_evaluation_layer_1_reshape_9_shape_concat__133_0"
    output: "combine_model_tfnodes_yolo_evaluation_layer_1_reshape_9__184_0"
    name: "TFNodes/yolo_evaluation_layer_1/Reshape_9__184"
    op_type: "Cast"
    attribute {
      name: "to"
      i: 7
      type: INT
    }
  }
  node {
    input: "combine_model_convolution_output17"
    output: "combine_model_leaky_re_lu_68_leakyrelu_0"
    name: "leaky_re_lu_68"
    op_type: "LeakyRelu"
    attribute {
      name: "alpha"
      f: 0.10000000149011612
      type: FLOAT
    }
    doc_string: ""
    domain: ""
  }
  node {
    input: "invoke_inline_model_101"
    input: "combine_model_tfnodes_yolo_evaluation_layer_1_reshape_9__184_0"
    output: "combine_model_tfnodes_yolo_evaluation_layer_1_reshape_9_0"
    name: "TFNodes/yolo_evaluation_layer_1/Reshape_9"
    op_type: "Reshape"
    doc_string: ""
    domain: ""
  }
  node {
    input: "combine_model_tfnodes_yolo_evaluation_layer_1_strided_slice_23_0"
    output: "combine_model_tfnodes_yolo_evaluation_layer_1_arange_3__149_cast_diff_0"
    name: "TFNodes/yolo_evaluation_layer_1/arange_3__149_cast_diff"
    op_type: "Cast"
    attribute {
      name: "to"
      i: 1
      type: INT
    }
    domain: ""
  }
  node {
    input: "combine_model_tfnodes_yolo_evaluation_layer_1_strided_slice_21_0"
    output: "combine_model_tfnodes_yolo_evaluation_layer_1_arange_2__174_cast_diff_0"
    name: "TFNodes/yolo_evaluation_layer_1/arange_2__174_cast_diff"
    op_type: "Cast"
    attribute {
      name: "to"
      i: 1
      type: INT
    }
    domain: ""
  }
  node {
    input: "combine_model_leaky_re_lu_68_leakyrelu_0"
    input: "W14"
    input: "combine_model_convolution_output14.opt.bias"
    output: "combine_model_convolution_output14"
    op_type: "Conv"
    attribute {
      name: "auto_pad"
      s: "SAME_UPPER"
      type: STRING
    }
    attribute {
      name: "dilations"
      ints: 1
      ints: 1
      type: INTS
    }
    attribute {
      name: "group"
      i: 1
      type: INT
    }
    attribute {
      name: "kernel_shape"
      ints: 1
      ints: 1
      type: INTS
    }
    attribute {
      name: "strides"
      ints: 1
      ints: 1
      type: INTS
    }
  }
  node {
    input: "combine_model_tfnodes_yolo_evaluation_layer_1_reshape_9_0"
    input: "TFNodes/yolo_evaluation_layer_1/strided_slice_32__185"
    input: "TFNodes/yolo_evaluation_layer_1/strided_slice_32__186"
    input: "TFNodes/yolo_evaluation_layer_1/strided_slice_32__187"
    input: "TFNodes/yolo_evaluation_layer_1/strided_slice_32__188"
    output: "combine_model_tfnodes_yolo_evaluation_layer_1_strided_slice_32_0"
    name: "TFNodes/yolo_evaluation_layer_1/strided_slice_32"
    op_type: "Slice"
  }
  node {
    input: "combine_model_tfnodes_yolo_evaluation_layer_1_reshape_9_0"
    input: "TFNodes/yolo_evaluation_layer_1/strided_slice_31__189"
    input: "TFNodes/yolo_evaluation_layer_1/strided_slice_31__190"
    input: "TFNodes/yolo_evaluation_layer_1/strided_slice_31__191"
    input: "TFNodes/yolo_evaluation_layer_1/strided_slice_31__192"
    output: "combine_model_tfnodes_yolo_evaluation_layer_1_strided_slice_31_0"
    name: "TFNodes/yolo_evaluation_layer_1/strided_slice_31"
    op_type: "Slice"
  }
  node {
    input: "combine_model_tfnodes_yolo_evaluation_layer_1_reshape_9_0"
    input: "TFNodes/yolo_evaluation_layer_1/strided_slice_29__194"
    input: "TFNodes/yolo_evaluation_layer_1/strided_slice_29__195"
    input: "TFNodes/yolo_evaluation_layer_1/strided_slice_29__196"
    input: "TFNodes/yolo_evaluation_layer_1/strided_slice_29__197"
    output: "combine_model_tfnodes_yolo_evaluation_layer_1_strided_slice_29_0"
    name: "TFNodes/yolo_evaluation_layer_1/strided_slice_29"
    op_type: "Slice"
  }
  node {
    input: "combine_model_tfnodes_yolo_evaluation_layer_1_reshape_9_0"
    input: "TFNodes/yolo_evaluation_layer_1/strided_slice_27__198"
    input: "TFNodes/yolo_evaluation_layer_1/strided_slice_27__199"
    input: "TFNodes/yolo_evaluation_layer_1/strided_slice_27__200"
    input: "TFNodes/yolo_evaluation_layer_1/strided_slice_27__201"
    output: "combine_model_tfnodes_yolo_evaluation_layer_1_strided_slice_27_0"
    name: "TFNodes/yolo_evaluation_layer_1/strided_slice_27"
    op_type: "Slice"
  }
  node {
    input: "combine_model_tfnodes_yolo_evaluation_layer_1_arange_3__149_cast_diff_0"
    output: "combine_model_tfnodes_yolo_evaluation_layer_1_arange_3__149_ceil_0"
    name: "TFNodes/yolo_evaluation_layer_1/arange_3__149_ceil"
    op_type: "Ceil"
    domain: ""
  }
  node {
    input: "combine_model_tfnodes_yolo_evaluation_layer_1_arange_2__174_cast_diff_0"
    output: "combine_model_tfnodes_yolo_evaluation_layer_1_arange_2__174_ceil_0"
    name: "TFNodes/yolo_evaluation_layer_1/arange_2__174_ceil"
    op_type: "Ceil"
    domain: ""
  }
  node {
    input: "combine_model_tfnodes_yolo_evaluation_layer_1_strided_slice_32_0"
    output: "combine_model_tfnodes_yolo_evaluation_layer_1_sigmoid_5_0"
    name: "TFNodes/yolo_evaluation_layer_1/Sigmoid_5"
    op_type: "Sigmoid"
  }
  node {
    input: "combine_model_tfnodes_yolo_evaluation_layer_1_strided_slice_31_0"
    output: "combine_model_tfnodes_yolo_evaluation_layer_1_sigmoid_4_0"
    name: "TFNodes/yolo_evaluation_layer_1/Sigmoid_4"
    op_type: "Sigmoid"
  }
  node {
    input: "combine_model_tfnodes_yolo_evaluation_layer_1_strided_slice_29_0"
    output: "combine_model_tfnodes_yolo_evaluation_layer_1_exp_1_0"
    name: "TFNodes/yolo_evaluation_layer_1/Exp_1"
    op_type: "Exp"
  }
  node {
    input: "combine_model_tfnodes_yolo_evaluation_layer_1_strided_slice_27_0"
    output: "combine_model_tfnodes_yolo_evaluation_layer_1_sigmoid_3_0"
    name: "TFNodes/yolo_evaluation_layer_1/Sigmoid_3"
    op_type: "Sigmoid"
  }
  node {
    input: "combine_model_convolution_output14"
    output: "combine_model_leaky_re_lu_69_leakyrelu_0"
    name: "leaky_re_lu_69"
    op_type: "LeakyRelu"
    attribute {
      name: "alpha"
      f: 0.10000000149011612
      type: FLOAT
    }
    doc_string: ""
    domain: ""
  }
  node {
    input: "combine_model_tfnodes_yolo_evaluation_layer_1_arange_3__149_ceil_0"
    output: "combine_model_tfnodes_yolo_evaluation_layer_1_arange_3__149_trip_cnt_0"
    name: "TFNodes/yolo_evaluation_layer_1/arange_3__149_trip_cnt"
    op_type: "Cast"
    attribute {
      name: "to"
      i: 7
      type: INT
    }
    domain: ""
  }
  node {
    input: "combine_model_tfnodes_yolo_evaluation_layer_1_arange_2__174_ceil_0"
    output: "combine_model_tfnodes_yolo_evaluation_layer_1_arange_2__174_trip_cnt_0"
    name: "TFNodes/yolo_evaluation_layer_1/arange_2__174_trip_cnt"
    op_type: "Cast"
    attribute {
      name: "to"
      i: 7
      type: INT
    }
    domain: ""
  }
  node {
    input: "combine_model_tfnodes_yolo_evaluation_layer_1_sigmoid_4_0"
    input: "combine_model_tfnodes_yolo_evaluation_layer_1_sigmoid_5_0"
    output: "combine_model_tfnodes_yolo_evaluation_layer_1_mul_12_0"
    name: "TFNodes/yolo_evaluation_layer_1/mul_12"
    op_type: "Mul"
  }
  node {
    input: "combine_model_tfnodes_yolo_evaluation_layer_1_exp_1_0"
    input: "combine_model_tfnodes_yolo_evaluation_layer_1_reshape_6_0"
    output: "combine_model_tfnodes_yolo_evaluation_layer_1_mul_7_0"
    name: "TFNodes/yolo_evaluation_layer_1/mul_7"
    op_type: "Mul"
  }
  node {
    input: "combine_model_leaky_re_lu_69_leakyrelu_0"
    input: "W11"
    input: "combine_model_convolution_output11.opt.bias"
    output: "combine_model_convolution_output11"
    op_type: "Conv"
    attribute {
      name: "auto_pad"
      s: "SAME_UPPER"
      type: STRING
    }
    attribute {
      name: "dilations"
      ints: 1
      ints: 1
      type: INTS
    }
    attribute {
      name: "group"
      i: 1
      type: INT
    }
    attribute {
      name: "kernel_shape"
      ints: 3
      ints: 3
      type: INTS
    }
    attribute {
      name: "strides"
      ints: 1
      ints: 1
      type: INTS
    }
  }
  node {
    input: "arange_base"
    input: "arange_start"
    input: "combine_model_tfnodes_yolo_evaluation_layer_1_arange_3__149_trip_cnt_0"
    output: "combine_model_tfnodes_yolo_evaluation_layer_1_arange_3__149_loop_1"
    name: "TFNodes/yolo_evaluation_layer_1/arange_3__149_loop"
    op_type: "Slice"
  }
  node {
    input: "arange_base"
    input: "arange_start"
    input: "combine_model_tfnodes_yolo_evaluation_layer_1_arange_2__174_trip_cnt_0"
    output: "combine_model_tfnodes_yolo_evaluation_layer_1_arange_2__174_loop_1"
    name: "TFNodes/yolo_evaluation_layer_1/arange_2__174_loop"
    op_type: "Slice"
  }
  node {
    input: "combine_model_tfnodes_yolo_evaluation_layer_1_mul_12_0"
    input: "TFNodes/yolo_evaluation_layer_1/Reshape_11/shape:0"
    output: "combine_model_tfnodes_yolo_evaluation_layer_1_reshape_11_0"
    name: "TFNodes/yolo_evaluation_layer_1/Reshape_11"
    op_type: "Reshape"
  }
  node {
    input: "combine_model_tfnodes_yolo_evaluation_layer_1_mul_7_0"
    input: "combine_model_tfnodes_yolo_evaluation_layer_1_cast_6_0"
    output: "combine_model_tfnodes_yolo_evaluation_layer_1_truediv_9_0"
    name: "TFNodes/yolo_evaluation_layer_1/truediv_9"
    op_type: "Div"
  }
  node {
    input: "combine_model_tfnodes_yolo_evaluation_layer_1_arange_3__149_loop_1"
    input: "TFNodes/yolo_evaluation_layer_1/Reshape_8/shape:0"
    output: "combine_model_tfnodes_yolo_evaluation_layer_1_reshape_8_0"
    name: "TFNodes/yolo_evaluation_layer_1/Reshape_8"
    op_type: "Reshape"
    doc_string: ""
    domain: ""
  }
  node {
    input: "combine_model_tfnodes_yolo_evaluation_layer_1_arange_2__174_loop_1"
    input: "TFNodes/yolo_evaluation_layer_1/Reshape_7/shape:0"
    output: "combine_model_tfnodes_yolo_evaluation_layer_1_reshape_7_0"
    name: "TFNodes/yolo_evaluation_layer_1/Reshape_7"
    op_type: "Reshape"
    doc_string: ""
    domain: ""
  }
  node {
    input: "combine_model_tfnodes_yolo_evaluation_layer_1_truediv_9_0"
    input: "TFNodes/yolo_evaluation_layer_1/strided_slice_34__298"
    input: "TFNodes/yolo_evaluation_layer_1/strided_slice_34__299"
    input: "TFNodes/yolo_evaluation_layer_1/strided_slice_34__300"
    input: "TFNodes/yolo_evaluation_layer_1/strided_slice_34__301"
    output: "combine_model_tfnodes_yolo_evaluation_layer_1_strided_slice_34_0"
    name: "TFNodes/yolo_evaluation_layer_1/strided_slice_34"
    op_type: "Slice"
  }
  node {
    input: "combine_model_convolution_output11"
    output: "combine_model_leaky_re_lu_70_leakyrelu_0"
    name: "leaky_re_lu_70"
    op_type: "LeakyRelu"
    attribute {
      name: "alpha"
      f: 0.10000000149011612
      type: FLOAT
    }
    doc_string: ""
    domain: ""
  }
  node {
    input: "combine_model_tfnodes_yolo_evaluation_layer_1_reshape_8_0"
    input: "combine_model_tfnodes_yolo_evaluation_layer_1_tile_3__158_0"
    output: "combine_model_tfnodes_yolo_evaluation_layer_1_tile_3_0"
    name: "TFNodes/yolo_evaluation_layer_1/Tile_3"
    op_type: "Tile"
  }
  node {
    input: "combine_model_tfnodes_yolo_evaluation_layer_1_reshape_7_0"
    input: "combine_model_tfnodes_yolo_evaluation_layer_1_tile_2__183_0"
    output: "combine_model_tfnodes_yolo_evaluation_layer_1_tile_2_0"
    name: "TFNodes/yolo_evaluation_layer_1/Tile_2"
    op_type: "Tile"
  }
  node {
    input: "combine_model_tfnodes_yolo_evaluation_layer_1_strided_slice_34_0"
    input: "combine_model_tfnodes_yolo_evaluation_layer_1_truediv_13_0"
    output: "combine_model_tfnodes_yolo_evaluation_layer_1_mul_10_0"
    name: "TFNodes/yolo_evaluation_layer_1/mul_10"
    op_type: "Mul"
  }
  node {
    input: "combine_model_leaky_re_lu_70_leakyrelu_0"
    input: "W8"
    input: "combine_model_convolution_output8.opt.bias"
    output: "combine_model_convolution_output8"
    op_type: "Conv"
    attribute {
      name: "auto_pad"
      s: "SAME_UPPER"
      type: STRING
    }
    attribute {
      name: "dilations"
      ints: 1
      ints: 1
      type: INTS
    }
    attribute {
      name: "group"
      i: 1
      type: INT
    }
    attribute {
      name: "kernel_shape"
      ints: 1
      ints: 1
      type: INTS
    }
    attribute {
      name: "strides"
      ints: 1
      ints: 1
      type: INTS
    }
  }
  node {
    input: "combine_model_tfnodes_yolo_evaluation_layer_1_tile_3_0"
    input: "combine_model_tfnodes_yolo_evaluation_layer_1_tile_2_0"
    output: "combine_model_tfnodes_yolo_evaluation_layer_1_concat_3_0"
    name: "TFNodes/yolo_evaluation_layer_1/concat_3"
    op_type: "Concat"
    attribute {
      name: "axis"
      i: 3
      type: INT
    }
  }
  node {
    input: "combine_model_tfnodes_yolo_evaluation_layer_1_mul_10_0"
    input: "TFNodes/yolo_evaluation_layer_1/truediv_15/y:0"
    output: "combine_model_tfnodes_yolo_evaluation_layer_1_truediv_15_0"
    name: "TFNodes/yolo_evaluation_layer_1/truediv_15"
    op_type: "Div"
  }
  node {
    input: "combine_model_tfnodes_yolo_evaluation_layer_1_mul_10_0"
    input: "TFNodes/yolo_evaluation_layer_1/truediv_14/y:0"
    output: "combine_model_tfnodes_yolo_evaluation_layer_1_truediv_14_0"
    name: "TFNodes/yolo_evaluation_layer_1/truediv_14"
    op_type: "Div"
  }
  node {
    input: "combine_model_tfnodes_yolo_evaluation_layer_1_concat_3_0"
    output: "combine_model_tfnodes_yolo_evaluation_layer_1_cast_4_0"
    name: "TFNodes/yolo_evaluation_layer_1/Cast_4"
    op_type: "Cast"
    attribute {
      name: "to"
      i: 1
      type: INT
    }
  }
  node {
    input: "combine_model_convolution_output8"
    output: "combine_model_leaky_re_lu_71_leakyrelu_0"
    name: "leaky_re_lu_71"
    op_type: "LeakyRelu"
    attribute {
      name: "alpha"
      f: 0.10000000149011612
      type: FLOAT
    }
    doc_string: ""
    domain: ""
  }
  node {
    input: "combine_model_tfnodes_yolo_evaluation_layer_1_sigmoid_3_0"
    input: "combine_model_tfnodes_yolo_evaluation_layer_1_cast_4_0"
    output: "combine_model_tfnodes_yolo_evaluation_layer_1_add_2_0"
    name: "TFNodes/yolo_evaluation_layer_1/add_2"
    op_type: "Add"
  }
  node {
    input: "combine_model_leaky_re_lu_71_leakyrelu_0"
    input: "W5"
    input: "combine_model_convolution_output5.opt.bias"
    output: "combine_model_convolution_output5"
    op_type: "Conv"
    attribute {
      name: "auto_pad"
      s: "SAME_UPPER"
      type: STRING
    }
    attribute {
      name: "dilations"
      ints: 1
      ints: 1
      type: INTS
    }
    attribute {
      name: "group"
      i: 1
      type: INT
    }
    attribute {
      name: "kernel_shape"
      ints: 3
      ints: 3
      type: INTS
    }
    attribute {
      name: "strides"
      ints: 1
      ints: 1
      type: INTS
    }
  }
  node {
    input: "combine_model_tfnodes_yolo_evaluation_layer_1_add_2_0"
    input: "combine_model_tfnodes_yolo_evaluation_layer_1_cast_5_0"
    output: "combine_model_tfnodes_yolo_evaluation_layer_1_truediv_8_0"
    name: "TFNodes/yolo_evaluation_layer_1/truediv_8"
    op_type: "Div"
  }
  node {
    input: "combine_model_tfnodes_yolo_evaluation_layer_1_truediv_8_0"
    input: "TFNodes/yolo_evaluation_layer_1/strided_slice_33__202"
    input: "TFNodes/yolo_evaluation_layer_1/strided_slice_33__203"
    input: "TFNodes/yolo_evaluation_layer_1/strided_slice_33__204"
    input: "TFNodes/yolo_evaluation_layer_1/strided_slice_33__205"
    output: "combine_model_tfnodes_yolo_evaluation_layer_1_strided_slice_33_0"
    name: "TFNodes/yolo_evaluation_layer_1/strided_slice_33"
    op_type: "Slice"
  }
  node {
    input: "combine_model_convolution_output5"
    output: "combine_model_leaky_re_lu_72_leakyrelu_0"
    name: "leaky_re_lu_72"
    op_type: "LeakyRelu"
    attribute {
      name: "alpha"
      f: 0.10000000149011612
      type: FLOAT
    }
    doc_string: ""
    domain: ""
  }
  node {
    input: "combine_model_tfnodes_yolo_evaluation_layer_1_strided_slice_33_0"
    input: "combine_model_tfnodes_yolo_evaluation_layer_1_truediv_12_0"
    output: "combine_model_tfnodes_yolo_evaluation_layer_1_sub_4_0"
    name: "TFNodes/yolo_evaluation_layer_1/sub_4"
    op_type: "Sub"
  }
  node {
    input: "combine_model_leaky_re_lu_72_leakyrelu_0"
    input: "W2"
    input: "B2"
    output: "combine_model_convolution_output2"
    name: "conv2d_75"
    op_type: "Conv"
    attribute {
      name: "auto_pad"
      s: "SAME_UPPER"
      type: STRING
    }
    attribute {
      name: "dilations"
      ints: 1
      ints: 1
      type: INTS
    }
    attribute {
      name: "group"
      i: 1
      type: INT
    }
    attribute {
      name: "kernel_shape"
      ints: 1
      ints: 1
      type: INTS
    }
    attribute {
      name: "strides"
      ints: 1
      ints: 1
      type: INTS
    }
    doc_string: ""
    domain: ""
  }
  node {
    input: "combine_model_tfnodes_yolo_evaluation_layer_1_sub_4_0"
    input: "combine_model_tfnodes_yolo_evaluation_layer_1_truediv_13_0"
    output: "combine_model_tfnodes_yolo_evaluation_layer_1_mul_9_0"
    name: "TFNodes/yolo_evaluation_layer_1/mul_9"
    op_type: "Mul"
  }
  node {
    input: "combine_model_convolution_output2"
    output: "invoke_inline_model_102"
    name: "PushTranspose_5"
    op_type: "Transpose"
    attribute {
      name: "perm"
      ints: 0
      ints: 2
      ints: 3
      ints: 1
      type: INTS
    }
    doc_string: ""
    domain: ""
  }
  node {
    input: "combine_model_tfnodes_yolo_evaluation_layer_1_mul_9_0"
    input: "combine_model_tfnodes_yolo_evaluation_layer_1_truediv_14_0"
    output: "combine_model_tfnodes_yolo_evaluation_layer_1_sub_5_0"
    name: "TFNodes/yolo_evaluation_layer_1/sub_5"
    op_type: "Sub"
  }
  node {
    input: "combine_model_tfnodes_yolo_evaluation_layer_1_mul_9_0"
    input: "combine_model_tfnodes_yolo_evaluation_layer_1_truediv_15_0"
    output: "combine_model_tfnodes_yolo_evaluation_layer_1_add_3_0"
    name: "TFNodes/yolo_evaluation_layer_1/add_3"
    op_type: "Add"
  }
  node {
    input: "invoke_inline_model_102"
    output: "combine_model_tfnodes_yolo_evaluation_layer_1_shape_3_0"
    name: "TFNodes/yolo_evaluation_layer_1/Shape_3"
    op_type: "Shape"
    doc_string: ""
    domain: ""
  }
  node {
    input: "combine_model_tfnodes_yolo_evaluation_layer_1_sub_5_0"
    input: "TFNodes/yolo_evaluation_layer_1/strided_slice_36__310"
    input: "TFNodes/yolo_evaluation_layer_1/strided_slice_36__311"
    input: "TFNodes/yolo_evaluation_layer_1/strided_slice_36__312"
    input: "TFNodes/yolo_evaluation_layer_1/strided_slice_36__313"
    output: "combine_model_tfnodes_yolo_evaluation_layer_1_strided_slice_36_0"
    name: "TFNodes/yolo_evaluation_layer_1/strided_slice_36"
    op_type: "Slice"
  }
  node {
    input: "combine_model_tfnodes_yolo_evaluation_layer_1_sub_5_0"
    input: "TFNodes/yolo_evaluation_layer_1/strided_slice_35__314"
    input: "TFNodes/yolo_evaluation_layer_1/strided_slice_35__315"
    input: "TFNodes/yolo_evaluation_layer_1/strided_slice_35__316"
    input: "TFNodes/yolo_evaluation_layer_1/strided_slice_35__317"
    output: "combine_model_tfnodes_yolo_evaluation_layer_1_strided_slice_35_0"
    name: "TFNodes/yolo_evaluation_layer_1/strided_slice_35"
    op_type: "Slice"
  }
  node {
    input: "combine_model_tfnodes_yolo_evaluation_layer_1_add_3_0"
    input: "TFNodes/yolo_evaluation_layer_1/strided_slice_38__318"
    input: "TFNodes/yolo_evaluation_layer_1/strided_slice_38__319"
    input: "TFNodes/yolo_evaluation_layer_1/strided_slice_38__320"
    input: "TFNodes/yolo_evaluation_layer_1/strided_slice_38__321"
    output: "combine_model_tfnodes_yolo_evaluation_layer_1_strided_slice_38_0"
    name: "TFNodes/yolo_evaluation_layer_1/strided_slice_38"
    op_type: "Slice"
  }
  node {
    input: "combine_model_tfnodes_yolo_evaluation_layer_1_add_3_0"
    input: "TFNodes/yolo_evaluation_layer_1/strided_slice_37__322"
    input: "TFNodes/yolo_evaluation_layer_1/strided_slice_37__323"
    input: "TFNodes/yolo_evaluation_layer_1/strided_slice_37__324"
    input: "TFNodes/yolo_evaluation_layer_1/strided_slice_37__325"
    output: "combine_model_tfnodes_yolo_evaluation_layer_1_strided_slice_37_0"
    name: "TFNodes/yolo_evaluation_layer_1/strided_slice_37"
    op_type: "Slice"
  }
  node {
    input: "combine_model_tfnodes_yolo_evaluation_layer_1_shape_3_0"
    output: "combine_model_tfnodes_yolo_evaluation_layer_1_shape_3__12_0"
    name: "TFNodes/yolo_evaluation_layer_1/Shape_3__12"
    op_type: "Cast"
    attribute {
      name: "to"
      i: 6
      type: INT
    }
  }
  node {
    input: "combine_model_tfnodes_yolo_evaluation_layer_1_strided_slice_35_0"
    input: "combine_model_tfnodes_yolo_evaluation_layer_1_strided_slice_36_0"
    input: "combine_model_tfnodes_yolo_evaluation_layer_1_strided_slice_37_0"
    input: "combine_model_tfnodes_yolo_evaluation_layer_1_strided_slice_38_0"
    output: "combine_model_tfnodes_yolo_evaluation_layer_1_concat_4_0"
    name: "TFNodes/yolo_evaluation_layer_1/concat_4"
    op_type: "Concat"
    attribute {
      name: "axis"
      i: 4
      type: INT
    }
  }
  node {
    input: "combine_model_tfnodes_yolo_evaluation_layer_1_shape_3__12_0"
    input: "TFNodes/yolo_evaluation_layer_1/strided_slice_39__13"
    input: "TFNodes/yolo_evaluation_layer_1/strided_slice_39__14"
    input: "TFNodes/yolo_evaluation_layer_1/strided_slice_39__15"
    input: "TFNodes/yolo_evaluation_layer_1/strided_slice_39__16"
    output: "combine_model_tfnodes_yolo_evaluation_layer_1_strided_slice_39_0"
    name: "TFNodes/yolo_evaluation_layer_1/strided_slice_39"
    op_type: "Slice"
  }
  node {
    input: "combine_model_tfnodes_yolo_evaluation_layer_1_concat_4_0"
    input: "combine_model_tfnodes_yolo_evaluation_layer_1_concat_5_0"
    output: "combine_model_tfnodes_yolo_evaluation_layer_1_mul_11_0"
    name: "TFNodes/yolo_evaluation_layer_1/mul_11"
    op_type: "Mul"
  }
  node {
    input: "combine_model_tfnodes_yolo_evaluation_layer_1_strided_slice_39_0"
    input: "TFNodes/yolo_evaluation_layer_1/strided_slice_47__17"
    input: "TFNodes/yolo_evaluation_layer_1/strided_slice_47__18"
    input: "TFNodes/yolo_evaluation_layer_1/strided_slice_47__19"
    input: "TFNodes/yolo_evaluation_layer_1/strided_slice_47__20"
    output: "combine_model_tfnodes_yolo_evaluation_layer_1_strided_slice_47_0"
    name: "TFNodes/yolo_evaluation_layer_1/strided_slice_47"
    op_type: "Slice"
  }
  node {
    input: "combine_model_tfnodes_yolo_evaluation_layer_1_strided_slice_39_0"
    input: "TFNodes/yolo_evaluation_layer_1/strided_slice_45__21"
    input: "TFNodes/yolo_evaluation_layer_1/strided_slice_45__22"
    input: "TFNodes/yolo_evaluation_layer_1/strided_slice_45__23"
    input: "TFNodes/yolo_evaluation_layer_1/strided_slice_45__24"
    output: "combine_model_tfnodes_yolo_evaluation_layer_1_strided_slice_45_0"
    name: "TFNodes/yolo_evaluation_layer_1/strided_slice_45"
    op_type: "Slice"
  }
  node {
    input: "combine_model_tfnodes_yolo_evaluation_layer_1_strided_slice_39_0"
    input: "TFNodes/yolo_evaluation_layer_1/strided_slice_44__26"
    input: "TFNodes/yolo_evaluation_layer_1/strided_slice_44__27"
    input: "TFNodes/yolo_evaluation_layer_1/strided_slice_44__28"
    input: "TFNodes/yolo_evaluation_layer_1/strided_slice_44__29"
    output: "combine_model_tfnodes_yolo_evaluation_layer_1_strided_slice_44_0"
    name: "TFNodes/yolo_evaluation_layer_1/strided_slice_44"
    op_type: "Slice"
  }
  node {
    input: "combine_model_tfnodes_yolo_evaluation_layer_1_strided_slice_39_0"
    input: "TFNodes/yolo_evaluation_layer_1/strided_slice_43__37"
    input: "TFNodes/yolo_evaluation_layer_1/strided_slice_43__38"
    input: "TFNodes/yolo_evaluation_layer_1/strided_slice_43__39"
    input: "TFNodes/yolo_evaluation_layer_1/strided_slice_43__40"
    output: "combine_model_tfnodes_yolo_evaluation_layer_1_strided_slice_43_0"
    name: "TFNodes/yolo_evaluation_layer_1/strided_slice_43"
    op_type: "Slice"
  }
  node {
    input: "combine_model_tfnodes_yolo_evaluation_layer_1_strided_slice_39_0"
    input: "TFNodes/yolo_evaluation_layer_1/strided_slice_42__47"
    input: "TFNodes/yolo_evaluation_layer_1/strided_slice_42__48"
    input: "TFNodes/yolo_evaluation_layer_1/strided_slice_42__49"
    input: "TFNodes/yolo_evaluation_layer_1/strided_slice_42__50"
    output: "combine_model_tfnodes_yolo_evaluation_layer_1_strided_slice_42_0"
    name: "TFNodes/yolo_evaluation_layer_1/strided_slice_42"
    op_type: "Slice"
  }
  node {
    input: "combine_model_tfnodes_yolo_evaluation_layer_1_strided_slice_39_0"
    input: "TFNodes/yolo_evaluation_layer_1/strided_slice_41__62"
    input: "TFNodes/yolo_evaluation_layer_1/strided_slice_41__63"
    input: "TFNodes/yolo_evaluation_layer_1/strided_slice_41__64"
    input: "TFNodes/yolo_evaluation_layer_1/strided_slice_41__65"
    output: "combine_model_tfnodes_yolo_evaluation_layer_1_strided_slice_41_0"
    name: "TFNodes/yolo_evaluation_layer_1/strided_slice_41"
    op_type: "Slice"
  }
  node {
    input: "combine_model_tfnodes_yolo_evaluation_layer_1_strided_slice_39_0"
    input: "TFNodes/yolo_evaluation_layer_1/strided_slice_40__72"
    input: "TFNodes/yolo_evaluation_layer_1/strided_slice_40__73"
    input: "TFNodes/yolo_evaluation_layer_1/strided_slice_40__74"
    input: "TFNodes/yolo_evaluation_layer_1/strided_slice_40__75"
    output: "combine_model_tfnodes_yolo_evaluation_layer_1_strided_slice_40_0"
    name: "TFNodes/yolo_evaluation_layer_1/strided_slice_40"
    op_type: "Slice"
  }
  node {
    input: "combine_model_tfnodes_yolo_evaluation_layer_1_mul_11_0"
    input: "TFNodes/yolo_evaluation_layer_1/Reshape_10/shape:0"
    output: "combine_model_tfnodes_yolo_evaluation_layer_1_reshape_10_0"
    name: "TFNodes/yolo_evaluation_layer_1/Reshape_10"
    op_type: "Reshape"
  }
  node {
    input: "combine_model_tfnodes_yolo_evaluation_layer_1_strided_slice_43_0"
    input: "TFNodes/yolo_evaluation_layer_1/Tile_5/multiples/1:0"
    input: "TFNodes/yolo_evaluation_layer_1/Tile_5/multiples/2:0"
    input: "TFNodes/yolo_evaluation_layer_1/Tile_5/multiples/3:0"
    output: "combine_model_tfnodes_yolo_evaluation_layer_1_tile_5_multiples_concat__46_0"
    name: "TFNodes/yolo_evaluation_layer_1/Tile_5/multiples_Concat__46"
    op_type: "Concat"
    attribute {
      name: "axis"
      i: 0
      type: INT
    }
    doc_string: ""
    domain: ""
  }
  node {
    input: "TFNodes/yolo_evaluation_layer_1/Tile_4/multiples/0:0"
    input: "combine_model_tfnodes_yolo_evaluation_layer_1_strided_slice_41_0"
    input: "TFNodes/yolo_evaluation_layer_1/Tile_4/multiples/2:0"
    input: "TFNodes/yolo_evaluation_layer_1/Tile_4/multiples/3:0"
    output: "combine_model_tfnodes_yolo_evaluation_layer_1_tile_4_multiples_concat__71_0"
    name: "TFNodes/yolo_evaluation_layer_1/Tile_4/multiples_Concat__71"
    op_type: "Concat"
    attribute {
      name: "axis"
      i: 0
      type: INT
    }
    doc_string: ""
    domain: ""
  }
  node {
    input: "TFNodes/yolo_evaluation_layer_1/Reshape_15/shape/0:0"
    input: "combine_model_tfnodes_yolo_evaluation_layer_1_strided_slice_44_0"
    input: "combine_model_tfnodes_yolo_evaluation_layer_1_strided_slice_45_0"
    input: "TFNodes/yolo_evaluation_layer_1/Reshape_15/shape/3:0"
    input: "TFNodes/yolo_evaluation_layer_1/Reshape_15/shape/4:0"
    output: "combine_model_tfnodes_yolo_evaluation_layer_1_reshape_15_shape_concat__36_0"
    name: "TFNodes/yolo_evaluation_layer_1/Reshape_15/shape_Concat__36"
    op_type: "Concat"
    attribute {
      name: "axis"
      i: 0
      type: INT
    }
    doc_string: ""
    domain: ""
  }
  node {
    input: "combine_model_tfnodes_yolo_evaluation_layer_1_strided_slice_47_0"
    output: "combine_model_tfnodes_yolo_evaluation_layer_1_cast_9_0"
    name: "TFNodes/yolo_evaluation_layer_1/Cast_9"
    op_type: "Cast"
    attribute {
      name: "to"
      i: 1
      type: INT
    }
  }
  node {
    input: "combine_model_tfnodes_yolo_evaluation_layer_1_tile_5_multiples_concat__46_0"
    output: "combine_model_tfnodes_yolo_evaluation_layer_1_tile_5__61_0"
    name: "TFNodes/yolo_evaluation_layer_1/Tile_5__61"
    op_type: "Cast"
    attribute {
      name: "to"
      i: 7
      type: INT
    }
  }
  node {
    input: "combine_model_tfnodes_yolo_evaluation_layer_1_tile_4_multiples_concat__71_0"
…
      dims: 256
      dims: 1
      dims: 1
      data_type: 1
      name: "W49"
  }
  initializer {
      dims: 512
      dims: 256
      dims: 3
      dims: 3
      data_type: 1
      name: "W50"
  }
  initializer {
      dims: 256
      dims: 512
      dims: 1
      dims: 1
      data_type: 1
      name: "W51"
  }
  initializer {
      dims: 256
      dims: 128
      dims: 3
      dims: 3
      data_type: 1
      name: "W52"
  }
  initializer {
      dims: 128
      dims: 256
      dims: 1
      dims: 1
      data_type: 1
      name: "W53"
  }
  initializer {
      dims: 512
      dims: 256
      dims: 3
      dims: 3
      data_type: 1
      name: "W54"
  }
  initializer {
      dims: 512
      dims: 256
      dims: 3
      dims: 3
      data_type: 1
      name: "W55"
  }
  initializer {
      dims: 256
      dims: 512
      dims: 1
      dims: 1
      data_type: 1
      name: "W56"
  }
  initializer {
      dims: 256
      dims: 128
      dims: 3
      dims: 3
      data_type: 1
      name: "W57"
  }
  initializer {
      dims: 256
      dims: 128
      dims: 3
      dims: 3
      data_type: 1
      name: "W58"
  }
  initializer {
      dims: 128
      dims: 256
      dims: 1
      dims: 1
      data_type: 1
      name: "W59"
  }
  initializer {
      dims: 256
      dims: 512
      dims: 1
      dims: 1
      data_type: 1
      name: "W60"
  }
  initializer {
      dims: 128
      dims: 256
      dims: 1
      dims: 1
      data_type: 1
      name: "W61"
  }
  initializer {
      dims: 256
      dims: 512
      dims: 1
      dims: 1
      data_type: 1
      name: "W62"
  }
  initializer {
      dims: 128
      dims: 256
      dims: 1
      dims: 1
      data_type: 1
      name: "W63"
  }
  initializer {
      dims: 256
      dims: 512
      dims: 1
      dims: 1
      data_type: 1
      name: "W64"
  }
  initializer {
      dims: 128
      dims: 256
      dims: 1
      dims: 1
      data_type: 1
      name: "W65"
  }
  initializer {
      dims: 128
      dims: 64
      dims: 3
      dims: 3
      data_type: 1
      name: "W66"
  }
  initializer {
      dims: 128
      dims: 64
      dims: 3
      dims: 3
      data_type: 1
      name: "W67"
  }
  initializer {
      dims: 128
      dims: 64
      dims: 3
      dims: 3
      data_type: 1
      name: "W68"
  }
  initializer {
      dims: 64
      dims: 128
      dims: 1
      dims: 1
      data_type: 1
      name: "W69"
  }
  initializer {
      dims: 64
      dims: 128
      dims: 1
      dims: 1
      data_type: 1
      name: "W70"
  }
  initializer {
      dims: 64
      dims: 32
      dims: 3
      dims: 3
      data_type: 1
      name: "W71"
  }
  initializer {
      dims: 64
      dims: 32
      dims: 3
      dims: 3
      data_type: 1
      name: "W72"
  }
  initializer {
      dims: 32
      dims: 64
      dims: 1
      dims: 1
      data_type: 1
      name: "W73"
  }
  initializer {
      dims: 32
      dims: 3
      dims: 3
      dims: 3
      data_type: 1
      name: "W74"
  }
  initializer {
      data_type: 1
      name: "TFNodes/yolo_evaluation_layer_1/truediv_7/y:0"
  }
  initializer {
      data_type: 1
      name: "TFNodes/yolo_evaluation_layer_1/truediv_6/y:0"
  }
  initializer {
      data_type: 1
      name: "TFNodes/yolo_evaluation_layer_1/truediv_3/y:0"
  }
  initializer {
      data_type: 1
      name: "TFNodes/yolo_evaluation_layer_1/truediv_23/y:0"
  }
  initializer {
      data_type: 1
      name: "TFNodes/yolo_evaluation_layer_1/truediv_22/y:0"
  }
  initializer {
      data_type: 1
      name: "TFNodes/yolo_evaluation_layer_1/truediv_19/y:0"
  }
  initializer {
      data_type: 1
      name: "TFNodes/yolo_evaluation_layer_1/truediv_15/y:0"
  }
  initializer {
      data_type: 1
      name: "TFNodes/yolo_evaluation_layer_1/truediv_14/y:0"
  }
  initializer {
      data_type: 1
      name: "TFNodes/yolo_evaluation_layer_1/truediv_11/y:0"
  }
  initializer {
      dims: 1
      data_type: 7
      name: "TFNodes/yolo_evaluation_layer_1/strided_slice__285"
  }
  initializer {
      dims: 1
      data_type: 7
      name: "TFNodes/yolo_evaluation_layer_1/strided_slice__284"
  }
  initializer {
      dims: 1
      data_type: 7
      name: "TFNodes/yolo_evaluation_layer_1/strided_slice__283"
  }
  initializer {
      dims: 1
      data_type: 7
      name: "TFNodes/yolo_evaluation_layer_1/strided_slice__282"
  }
  initializer {
      dims: 1
      data_type: 7
      name: "TFNodes/yolo_evaluation_layer_1/strided_slice_9__214"
  }
  initializer {
      dims: 1
      data_type: 7
      name: "TFNodes/yolo_evaluation_layer_1/strided_slice_9__213"
  }
  initializer {
      dims: 1
      data_type: 7
      name: "TFNodes/yolo_evaluation_layer_1/strided_slice_9__212"
  }
  initializer {
      dims: 1
      data_type: 7
      name: "TFNodes/yolo_evaluation_layer_1/strided_slice_9__211"
  }
  initializer {
      dims: 1
      data_type: 7
      name: "TFNodes/yolo_evaluation_layer_1/strided_slice_8__356"
  }
  initializer {
      dims: 1
      data_type: 7
      name: "TFNodes/yolo_evaluation_layer_1/strided_slice_8__355"
  }
  initializer {
      dims: 1
      data_type: 7
      name: "TFNodes/yolo_evaluation_layer_1/strided_slice_8__354"
  }
  initializer {
      dims: 1
      data_type: 7
      name: "TFNodes/yolo_evaluation_layer_1/strided_slice_8__353"
  }
  initializer {
      dims: 1
      data_type: 7
      name: "TFNodes/yolo_evaluation_layer_1/strided_slice_7__218"
  }
  initializer {
      dims: 1
      data_type: 7
      name: "TFNodes/yolo_evaluation_layer_1/strided_slice_7__217"
  }
  initializer {
      dims: 1
      data_type: 7
      name: "TFNodes/yolo_evaluation_layer_1/strided_slice_7__216"
  }
  initializer {
      dims: 1
      data_type: 7
      name: "TFNodes/yolo_evaluation_layer_1/strided_slice_7__215"
  }
  initializer {
      dims: 1
      data_type: 7
      name: "TFNodes/yolo_evaluation_layer_1/strided_slice_6__223"
  }
  initializer {
      dims: 1
      data_type: 7
      name: "TFNodes/yolo_evaluation_layer_1/strided_slice_6__222"
  }
  initializer {
      dims: 1
      data_type: 7
      name: "TFNodes/yolo_evaluation_layer_1/strided_slice_6__221"
  }
  initializer {
      dims: 1
      data_type: 7
      name: "TFNodes/yolo_evaluation_layer_1/strided_slice_6__220"
  }
  initializer {
      dims: 1
      data_type: 7
      name: "TFNodes/yolo_evaluation_layer_1/strided_slice_5__234"
  }
  initializer {
      dims: 1
      data_type: 7
      name: "TFNodes/yolo_evaluation_layer_1/strided_slice_5__233"
  }
  initializer {
      dims: 1
      data_type: 7
      name: "TFNodes/yolo_evaluation_layer_1/strided_slice_5__232"
  }
  initializer {
      dims: 1
      data_type: 7
      name: "TFNodes/yolo_evaluation_layer_1/strided_slice_5__231"
  }
  initializer {
      dims: 1
      data_type: 7
      name: "TFNodes/yolo_evaluation_layer_1/strided_slice_57__346"
  }
  initializer {
      dims: 1
      data_type: 7
      name: "TFNodes/yolo_evaluation_layer_1/strided_slice_57__345"
  }
  initializer {
      dims: 1
      data_type: 7
      name: "TFNodes/yolo_evaluation_layer_1/strided_slice_57__344"
  }
  initializer {
      dims: 1
      data_type: 7
      name: "TFNodes/yolo_evaluation_layer_1/strided_slice_57__343"
  }
  initializer {
      dims: 1
      data_type: 7
      name: "TFNodes/yolo_evaluation_layer_1/strided_slice_56__350"
  }
  initializer {
      dims: 1
      data_type: 7
      name: "TFNodes/yolo_evaluation_layer_1/strided_slice_56__349"
  }
  initializer {
      dims: 1
      data_type: 7
      name: "TFNodes/yolo_evaluation_layer_1/strided_slice_56__348"
  }
  initializer {
      dims: 1
      data_type: 7
      name: "TFNodes/yolo_evaluation_layer_1/strided_slice_56__347"
  }
  initializer {
      dims: 1
      data_type: 7
      name: "TFNodes/yolo_evaluation_layer_1/strided_slice_55__338"
  }
  initializer {
      dims: 1
      data_type: 7
      name: "TFNodes/yolo_evaluation_layer_1/strided_slice_55__337"
  }
  initializer {
      dims: 1
      data_type: 7
      name: "TFNodes/yolo_evaluation_layer_1/strided_slice_55__336"
  }
  initializer {
      dims: 1
      data_type: 7
      name: "TFNodes/yolo_evaluation_layer_1/strided_slice_55__335"
  }
  initializer {
      dims: 1
      data_type: 7
      name: "TFNodes/yolo_evaluation_layer_1/strided_slice_54__342"
  }
  initializer {
      dims: 1
      data_type: 7
      name: "TFNodes/yolo_evaluation_layer_1/strided_slice_54__341"
  }
  initializer {
      dims: 1
      data_type: 7
      name: "TFNodes/yolo_evaluation_layer_1/strided_slice_54__340"
  }
  initializer {
      dims: 1
      data_type: 7
      name: "TFNodes/yolo_evaluation_layer_1/strided_slice_54__339"
  }
  initializer {
      dims: 1
      data_type: 7
      name: "TFNodes/yolo_evaluation_layer_1/strided_slice_53__293"
  }
  initializer {
      dims: 1
      data_type: 7
      name: "TFNodes/yolo_evaluation_layer_1/strided_slice_53__292"
  }
  initializer {
      dims: 1
      data_type: 7
      name: "TFNodes/yolo_evaluation_layer_1/strided_slice_53__291"
  }
  initializer {
      dims: 1
      data_type: 7
      name: "TFNodes/yolo_evaluation_layer_1/strided_slice_53__290"
  }
  initializer {
      dims: 1
      data_type: 7
      name: "TFNodes/yolo_evaluation_layer_1/strided_slice_52__108"
  }
  initializer {
      dims: 1
      data_type: 7
      name: "TFNodes/yolo_evaluation_layer_1/strided_slice_52__107"
  }
  initializer {
      dims: 1
      data_type: 7
      name: "TFNodes/yolo_evaluation_layer_1/strided_slice_52__106"
  }
  initializer {
      dims: 1
      data_type: 7
      name: "TFNodes/yolo_evaluation_layer_1/strided_slice_52__105"
  }
  initializer {
      dims: 1
      data_type: 7
      name: "TFNodes/yolo_evaluation_layer_1/strided_slice_51__91"
  }
  initializer {
      dims: 1
      data_type: 7
      name: "TFNodes/yolo_evaluation_layer_1/strided_slice_51__90"
  }
  initializer {
      dims: 1
      data_type: 7
      name: "TFNodes/yolo_evaluation_layer_1/strided_slice_51__89"
  }
  initializer {
      dims: 1
      data_type: 7
      name: "TFNodes/yolo_evaluation_layer_1/strided_slice_51__88"
  }
  initializer {
      dims: 1
      data_type: 7
      name: "TFNodes/yolo_evaluation_layer_1/strided_slice_50__95"
  }
  initializer {
      dims: 1
      data_type: 7
      name: "TFNodes/yolo_evaluation_layer_1/strided_slice_50__94"
  }
  initializer {
      dims: 1
      data_type: 7
      name: "TFNodes/yolo_evaluation_layer_1/strided_slice_50__93"
  }
  initializer {
      dims: 1
      data_type: 7
      name: "TFNodes/yolo_evaluation_layer_1/strided_slice_50__92"
  }
  initializer {
      dims: 1
      data_type: 7
      name: "TFNodes/yolo_evaluation_layer_1/strided_slice_4__244"
  }
  initializer {
      dims: 1
      data_type: 7
      name: "TFNodes/yolo_evaluation_layer_1/strided_slice_4__243"
  }
  initializer {
      dims: 1
      data_type: 7
      name: "TFNodes/yolo_evaluation_layer_1/strided_slice_4__242"
  }
  initializer {
      dims: 1
      data_type: 7
      name: "TFNodes/yolo_evaluation_layer_1/strided_slice_4__241"
  }
  initializer {
      dims: 1
      data_type: 7
      name: "TFNodes/yolo_evaluation_layer_1/strided_slice_49__289"
  }
  initializer {
      dims: 1
      data_type: 7
      name: "TFNodes/yolo_evaluation_layer_1/strided_slice_49__288"
  }
  initializer {
      dims: 1
      data_type: 7
      name: "TFNodes/yolo_evaluation_layer_1/strided_slice_49__287"
  }
  initializer {
      dims: 1
      data_type: 7
      name: "TFNodes/yolo_evaluation_layer_1/strided_slice_49__286"
  }
  initializer {
      dims: 1
      data_type: 7
      name: "TFNodes/yolo_evaluation_layer_1/strided_slice_48__99"
  }
  initializer {
      dims: 1
      data_type: 7
      name: "TFNodes/yolo_evaluation_layer_1/strided_slice_48__98"
  }
  initializer {
      dims: 1
      data_type: 7
      name: "TFNodes/yolo_evaluation_layer_1/strided_slice_48__97"
  }
  initializer {
      dims: 1
      data_type: 7
      name: "TFNodes/yolo_evaluation_layer_1/strided_slice_48__100"
  }
  initializer {
      dims: 1
      data_type: 7
      name: "TFNodes/yolo_evaluation_layer_1/strided_slice_47__20"
  }
  initializer {
      dims: 1
      data_type: 7
      name: "TFNodes/yolo_evaluation_layer_1/strided_slice_47__19"
  }
  initializer {
      dims: 1
      data_type: 7
      name: "TFNodes/yolo_evaluation_layer_1/strided_slice_47__18"
  }
  initializer {
      dims: 1
      data_type: 7
      name: "TFNodes/yolo_evaluation_layer_1/strided_slice_47__17"
  }
  initializer {
      dims: 1
      data_type: 7
      name: "TFNodes/yolo_evaluation_layer_1/strided_slice_46__104"
  }
  initializer {
      dims: 1
      data_type: 7
      name: "TFNodes/yolo_evaluation_layer_1/strided_slice_46__103"
  }
  initializer {
      dims: 1
      data_type: 7
      name: "TFNodes/yolo_evaluation_layer_1/strided_slice_46__102"
  }
  initializer {
      dims: 1
      data_type: 7
      name: "TFNodes/yolo_evaluation_layer_1/strided_slice_46__101"
  }
  initializer {
      dims: 1
      data_type: 7
      name: "TFNodes/yolo_evaluation_layer_1/strided_slice_45__24"
  }
  initializer {
      dims: 1
      data_type: 7
      name: "TFNodes/yolo_evaluation_layer_1/strided_slice_45__23"
  }
  initializer {
      dims: 1
      data_type: 7
      name: "TFNodes/yolo_evaluation_layer_1/strided_slice_45__22"
  }
  initializer {
      dims: 1
      data_type: 7
      name: "TFNodes/yolo_evaluation_layer_1/strided_slice_45__21"
  }
  initializer {
      dims: 1
      data_type: 7
      name: "TFNodes/yolo_evaluation_layer_1/strided_slice_44__29"
  }
  initializer {
      dims: 1
      data_type: 7
      name: "TFNodes/yolo_evaluation_layer_1/strided_slice_44__28"
  }
  initializer {
      dims: 1
      data_type: 7
      name: "TFNodes/yolo_evaluation_layer_1/strided_slice_44__27"
  }
  initializer {
      dims: 1
      data_type: 7
      name: "TFNodes/yolo_evaluation_layer_1/strided_slice_44__26"
  }
  initializer {
      dims: 1
      data_type: 7
      name: "TFNodes/yolo_evaluation_layer_1/strided_slice_43__40"
  }
  initializer {
      dims: 1
      data_type: 7
      name: "TFNodes/yolo_evaluation_layer_1/strided_slice_43__39"
  }
  initializer {
      dims: 1
      data_type: 7
      name: "TFNodes/yolo_evaluation_layer_1/strided_slice_43__38"
  }
  initializer {
      dims: 1
      data_type: 7
      name: "TFNodes/yolo_evaluation_layer_1/strided_slice_43__37"
  }
  initializer {
      dims: 1
      data_type: 7
      name: "TFNodes/yolo_evaluation_layer_1/strided_slice_42__50"
  }
  initializer {
      dims: 1
      data_type: 7
      name: "TFNodes/yolo_evaluation_layer_1/strided_slice_42__49"
  }
  initializer {
      dims: 1
      data_type: 7
      name: "TFNodes/yolo_evaluation_layer_1/strided_slice_42__48"
  }
  initializer {
      dims: 1
      data_type: 7
      name: "TFNodes/yolo_evaluation_layer_1/strided_slice_42__47"
  }
  initializer {
      dims: 1
      data_type: 7
      name: "TFNodes/yolo_evaluation_layer_1/strided_slice_41__65"
  }
  initializer {
      dims: 1
      data_type: 7
      name: "TFNodes/yolo_evaluation_layer_1/strided_slice_41__64"
  }
  initializer {
      dims: 1
      data_type: 7
      name: "TFNodes/yolo_evaluation_layer_1/strided_slice_41__63"
  }
  initializer {
      dims: 1
      data_type: 7
      name: "TFNodes/yolo_evaluation_layer_1/strided_slice_41__62"
  }
  initializer {
      dims: 1
      data_type: 7
      name: "TFNodes/yolo_evaluation_layer_1/strided_slice_40__75"
  }
  initializer {
      dims: 1
      data_type: 7
      name: "TFNodes/yolo_evaluation_layer_1/strided_slice_40__74"
  }
  initializer {
      dims: 1
      data_type: 7
      name: "TFNodes/yolo_evaluation_layer_1/strided_slice_40__73"
  }
  initializer {
      dims: 1
      data_type: 7
      name: "TFNodes/yolo_evaluation_layer_1/strided_slice_40__72"
  }
  initializer {
      dims: 1
      data_type: 7
      name: "TFNodes/yolo_evaluation_layer_1/strided_slice_3__259"
  }
  initializer {
      dims: 1
      data_type: 7
      name: "TFNodes/yolo_evaluation_layer_1/strided_slice_3__258"
  }
  initializer {
      dims: 1
      data_type: 7
      name: "TFNodes/yolo_evaluation_layer_1/strided_slice_3__257"
  }
  initializer {
      dims: 1
      data_type: 7
      name: "TFNodes/yolo_evaluation_layer_1/strided_slice_3__256"
  }
  initializer {
      dims: 1
      data_type: 7
      name: "TFNodes/yolo_evaluation_layer_1/strided_slice_39__16"
  }
  initializer {
      dims: 1
      data_type: 7
      name: "TFNodes/yolo_evaluation_layer_1/strided_slice_39__15"
  }
  initializer {
      dims: 1
      data_type: 7
      name: "TFNodes/yolo_evaluation_layer_1/strided_slice_39__14"
  }
  initializer {
      dims: 1
      data_type: 7
      name: "TFNodes/yolo_evaluation_layer_1/strided_slice_39__13"
  }
  initializer {
      dims: 1
      data_type: 7
      name: "TFNodes/yolo_evaluation_layer_1/strided_slice_38__321"
  }
  initializer {
      dims: 1
      data_type: 7
      name: "TFNodes/yolo_evaluation_layer_1/strided_slice_38__320"
  }
  initializer {
      dims: 1
      data_type: 7
      name: "TFNodes/yolo_evaluation_layer_1/strided_slice_38__319"
  }
  initializer {
      dims: 1
      data_type: 7
      name: "TFNodes/yolo_evaluation_layer_1/strided_slice_38__318"
  }
  initializer {
      dims: 1
      data_type: 7
      name: "TFNodes/yolo_evaluation_layer_1/strided_slice_37__325"
  }
  initializer {
      dims: 1
      data_type: 7
      name: "TFNodes/yolo_evaluation_layer_1/strided_slice_37__324"
  }
  initializer {
      dims: 1
      data_type: 7
      name: "TFNodes/yolo_evaluation_layer_1/strided_slice_37__323"
  }
  initializer {
      dims: 1
      data_type: 7
      name: "TFNodes/yolo_evaluation_layer_1/strided_slice_37__322"
  }
  initializer {
      dims: 1
      data_type: 7
      name: "TFNodes/yolo_evaluation_layer_1/strided_slice_36__313"
  }
  initializer {
      dims: 1
      data_type: 7
      name: "TFNodes/yolo_evaluation_layer_1/strided_slice_36__312"
  }
  initializer {
      dims: 1
      data_type: 7
      name: "TFNodes/yolo_evaluation_layer_1/strided_slice_36__311"
  }
  initializer {
      dims: 1
      data_type: 7
      name: "TFNodes/yolo_evaluation_layer_1/strided_slice_36__310"
  }
  initializer {
      dims: 1
      data_type: 7
      name: "TFNodes/yolo_evaluation_layer_1/strided_slice_35__317"
  }
  initializer {
      dims: 1
      data_type: 7
      name: "TFNodes/yolo_evaluation_layer_1/strided_slice_35__316"
  }
  initializer {
      dims: 1
      data_type: 7
      name: "TFNodes/yolo_evaluation_layer_1/strided_slice_35__315"
  }
  initializer {
      dims: 1
      data_type: 7
      name: "TFNodes/yolo_evaluation_layer_1/strided_slice_35__314"
  }
  initializer {
      dims: 1
      data_type: 7
      name: "TFNodes/yolo_evaluation_layer_1/strided_slice_34__301"
  }
  initializer {
      dims: 1
      data_type: 7
      name: "TFNodes/yolo_evaluation_layer_1/strided_slice_34__300"
  }
  initializer {
      dims: 1
      data_type: 7
      name: "TFNodes/yolo_evaluation_layer_1/strided_slice_34__299"
  }
  initializer {
      dims: 1
      data_type: 7
      name: "TFNodes/yolo_evaluation_layer_1/strided_slice_34__298"
  }
  initializer {
      dims: 1
      data_type: 7
      name: "TFNodes/yolo_evaluation_layer_1/strided_slice_33__205"
  }
  initializer {
      dims: 1
      data_type: 7
      name: "TFNodes/yolo_evaluation_layer_1/strided_slice_33__204"
  }
  initializer {
      dims: 1
      data_type: 7
      name: "TFNodes/yolo_evaluation_layer_1/strided_slice_33__203"
  }
  initializer {
      dims: 1
      data_type: 7
      name: "TFNodes/yolo_evaluation_layer_1/strided_slice_33__202"
  }
  initializer {
      dims: 1
      data_type: 7
      name: "TFNodes/yolo_evaluation_layer_1/strided_slice_32__188"
  }
  initializer {
      dims: 1
      data_type: 7
      name: "TFNodes/yolo_evaluation_layer_1/strided_slice_32__187"
  }
  initializer {
      dims: 1
      data_type: 7
      name: "TFNodes/yolo_evaluation_layer_1/strided_slice_32__186"
  }
  initializer {
      dims: 1
      data_type: 7
      name: "TFNodes/yolo_evaluation_layer_1/strided_slice_32__185"
  }
  initializer {
      dims: 1
      data_type: 7
      name: "TFNodes/yolo_evaluation_layer_1/strided_slice_31__192"
  }
  initializer {
      dims: 1
      data_type: 7
      name: "TFNodes/yolo_evaluation_layer_1/strided_slice_31__191"
  }
  initializer {
      dims: 1
      data_type: 7
      name: "TFNodes/yolo_evaluation_layer_1/strided_slice_31__190"
  }
  initializer {
      dims: 1
      data_type: 7
      name: "TFNodes/yolo_evaluation_layer_1/strided_slice_31__189"
  }
  initializer {
      dims: 1
      data_type: 7
      name: "TFNodes/yolo_evaluation_layer_1/strided_slice_30__297"
  }
  initializer {
      dims: 1
      data_type: 7
      name: "TFNodes/yolo_evaluation_layer_1/strided_slice_30__296"
  }
  initializer {
      dims: 1
      data_type: 7
      name: "TFNodes/yolo_evaluation_layer_1/strided_slice_30__295"
  }
  initializer {
      dims: 1
      data_type: 7
      name: "TFNodes/yolo_evaluation_layer_1/strided_slice_30__294"
  }
  initializer {
      dims: 1
      data_type: 7
      name: "TFNodes/yolo_evaluation_layer_1/strided_slice_2__269"
  }
  initializer {
      dims: 1
      data_type: 7
      name: "TFNodes/yolo_evaluation_layer_1/strided_slice_2__268"
  }
  initializer {
      dims: 1
      data_type: 7
      name: "TFNodes/yolo_evaluation_layer_1/strided_slice_2__267"
  }
  initializer {
      dims: 1
      data_type: 7
      name: "TFNodes/yolo_evaluation_layer_1/strided_slice_2__266"
  }
  initializer {
      dims: 1
      data_type: 7
      name: "TFNodes/yolo_evaluation_layer_1/strided_slice_29__197"
  }
  initializer {
      dims: 1
      data_type: 7
      name: "TFNodes/yolo_evaluation_layer_1/strided_slice_29__196"
  }
  initializer {
      dims: 1
      data_type: 7
      name: "TFNodes/yolo_evaluation_layer_1/strided_slice_29__195"
  }
  initializer {
      dims: 1
      data_type: 7
      name: "TFNodes/yolo_evaluation_layer_1/strided_slice_29__194"
  }
  initializer {
      dims: 1
      data_type: 7
      name: "TFNodes/yolo_evaluation_layer_1/strided_slice_28__117"
  }
  initializer {
      dims: 1
      data_type: 7
      name: "TFNodes/yolo_evaluation_layer_1/strided_slice_28__116"
  }
  initializer {
      dims: 1
      data_type: 7
      name: "TFNodes/yolo_evaluation_layer_1/strided_slice_28__115"
  }
  initializer {
      dims: 1
      data_type: 7
      name: "TFNodes/yolo_evaluation_layer_1/strided_slice_28__114"
  }
  initializer {
      dims: 1
      data_type: 7
      name: "TFNodes/yolo_evaluation_layer_1/strided_slice_27__201"
  }
  initializer {
      dims: 1
      data_type: 7
      name: "TFNodes/yolo_evaluation_layer_1/strided_slice_27__200"
  }
  initializer {
      dims: 1
      data_type: 7
      name: "TFNodes/yolo_evaluation_layer_1/strided_slice_27__199"
  }
  initializer {
      dims: 1
      data_type: 7
      name: "TFNodes/yolo_evaluation_layer_1/strided_slice_27__198"
  }
  initializer {
      dims: 1
      data_type: 7
      name: "TFNodes/yolo_evaluation_layer_1/strided_slice_26__121"
  }
  initializer {
      dims: 1
      data_type: 7
      name: "TFNodes/yolo_evaluation_layer_1/strided_slice_26__120"
  }
  initializer {
      dims: 1
      data_type: 7
      name: "TFNodes/yolo_evaluation_layer_1/strided_slice_26__119"
  }
  initializer {
      dims: 1
      data_type: 7
      name: "TFNodes/yolo_evaluation_layer_1/strided_slice_26__118"
  }
  initializer {
      dims: 1
      data_type: 7
      name: "TFNodes/yolo_evaluation_layer_1/strided_slice_25__126"
  }
  initializer {
      dims: 1
      data_type: 7
      name: "TFNodes/yolo_evaluation_layer_1/strided_slice_25__125"
  }
  initializer {
      dims: 1
      data_type: 7
      name: "TFNodes/yolo_evaluation_layer_1/strided_slice_25__124"
  }
  initializer {
      dims: 1
      data_type: 7
      name: "TFNodes/yolo_evaluation_layer_1/strided_slice_25__123"
  }
  initializer {
      dims: 1
      data_type: 7
      name: "TFNodes/yolo_evaluation_layer_1/strided_slice_24__137"
  }
  initializer {
      dims: 1
      data_type: 7
      name: "TFNodes/yolo_evaluation_layer_1/strided_slice_24__136"
  }
  initializer {
      dims: 1
      data_type: 7
      name: "TFNodes/yolo_evaluation_layer_1/strided_slice_24__135"
  }
  initializer {
      dims: 1
      data_type: 7
      name: "TFNodes/yolo_evaluation_layer_1/strided_slice_24__134"
  }
  initializer {
      dims: 1
      data_type: 7
      name: "TFNodes/yolo_evaluation_layer_1/strided_slice_23__147"
  }
  initializer {
      dims: 1
      data_type: 7
      name: "TFNodes/yolo_evaluation_layer_1/strided_slice_23__146"
  }
  initializer {
      dims: 1
      data_type: 7
      name: "TFNodes/yolo_evaluation_layer_1/strided_slice_23__145"
  }
  initializer {
      dims: 1
      data_type: 7
      name: "TFNodes/yolo_evaluation_layer_1/strided_slice_23__144"
  }
  initializer {
      dims: 1
      data_type: 7
      name: "TFNodes/yolo_evaluation_layer_1/strided_slice_22__162"
  }
  initializer {
      dims: 1
      data_type: 7
      name: "TFNodes/yolo_evaluation_layer_1/strided_slice_22__161"
  }
  initializer {
      dims: 1
      data_type: 7
      name: "TFNodes/yolo_evaluation_layer_1/strided_slice_22__160"
  }
  initializer {
      dims: 1
      data_type: 7
      name: "TFNodes/yolo_evaluation_layer_1/strided_slice_22__159"
  }
  initializer {
      dims: 1
      data_type: 7
      name: "TFNodes/yolo_evaluation_layer_1/strided_slice_21__172"
  }
  initializer {
      dims: 1
      data_type: 7
      name: "TFNodes/yolo_evaluation_layer_1/strided_slice_21__171"
  }
  initializer {
      dims: 1
      data_type: 7
      name: "TFNodes/yolo_evaluation_layer_1/strided_slice_21__170"
  }
  initializer {
      dims: 1
      data_type: 7
      name: "TFNodes/yolo_evaluation_layer_1/strided_slice_21__169"
  }
  initializer {
      dims: 1
      data_type: 7
      name: "TFNodes/yolo_evaluation_layer_1/strided_slice_20__113"
  }
  initializer {
      dims: 1
      data_type: 7
      name: "TFNodes/yolo_evaluation_layer_1/strided_slice_20__112"
  }
  initializer {
      dims: 1
      data_type: 7
      name: "TFNodes/yolo_evaluation_layer_1/strided_slice_20__111"
  }
  initializer {
      dims: 1
      data_type: 7
      name: "TFNodes/yolo_evaluation_layer_1/strided_slice_20__110"
  }
  initializer {
      dims: 1
      data_type: 7
      name: "TFNodes/yolo_evaluation_layer_1/strided_slice_1__210"
  }
  initializer {
      dims: 1
      data_type: 7
      name: "TFNodes/yolo_evaluation_layer_1/strided_slice_1__209"
  }
  initializer {
      dims: 1
      data_type: 7
      name: "TFNodes/yolo_evaluation_layer_1/strided_slice_1__208"
  }
  initializer {
      dims: 1
      data_type: 7
      name: "TFNodes/yolo_evaluation_layer_1/strided_slice_1__207"
  }
  initializer {
      dims: 1
      data_type: 7
      name: "TFNodes/yolo_evaluation_layer_1/strided_slice_19__381"
  }
  initializer {
      dims: 1
      data_type: 7
      name: "TFNodes/yolo_evaluation_layer_1/strided_slice_19__380"
  }
  initializer {
      dims: 1
      data_type: 7
      name: "TFNodes/yolo_evaluation_layer_1/strided_slice_19__379"
  }
  initializer {
      dims: 1
      data_type: 7
      name: "TFNodes/yolo_evaluation_layer_1/strided_slice_19__378"
  }
  initializer {
      dims: 1
      data_type: 7
      name: "TFNodes/yolo_evaluation_layer_1/strided_slice_18__385"
  }
  initializer {
      dims: 1
      data_type: 7
      name: "TFNodes/yolo_evaluation_layer_1/strided_slice_18__384"
  }
  initializer {
      dims: 1
      data_type: 7
      name: "TFNodes/yolo_evaluation_layer_1/strided_slice_18__383"
  }
  initializer {
      dims: 1
      data_type: 7
      name: "TFNodes/yolo_evaluation_layer_1/strided_slice_18__382"
  }
  initializer {
      dims: 1
      data_type: 7
      name: "TFNodes/yolo_evaluation_layer_1/strided_slice_17__389"
  }
  initializer {
      dims: 1
      data_type: 7
      name: "TFNodes/yolo_evaluation_layer_1/strided_slice_17__388"
  }
  initializer {
      dims: 1
      data_type: 7
      name: "TFNodes/yolo_evaluation_layer_1/strided_slice_17__387"
  }
  initializer {
      dims: 1
      data_type: 7
      name: "TFNodes/yolo_evaluation_layer_1/strided_slice_17__386"
  }
  initializer {
      dims: 1
      data_type: 7
      name: "TFNodes/yolo_evaluation_layer_1/strided_slice_16__393"
  }
  initializer {
      dims: 1
      data_type: 7
      name: "TFNodes/yolo_evaluation_layer_1/strided_slice_16__392"
  }
  initializer {
      dims: 1
      data_type: 7
      name: "TFNodes/yolo_evaluation_layer_1/strided_slice_16__391"
  }
  initializer {
      dims: 1
      data_type: 7
      name: "TFNodes/yolo_evaluation_layer_1/strided_slice_16__390"
  }
  initializer {
      dims: 1
      data_type: 7
      name: "TFNodes/yolo_evaluation_layer_1/strided_slice_15__377"
  }
  initializer {
      dims: 1
      data_type: 7
      name: "TFNodes/yolo_evaluation_layer_1/strided_slice_15__376"
  }
  initializer {
      dims: 1
      data_type: 7
      name: "TFNodes/yolo_evaluation_layer_1/strided_slice_15__375"
  }
  initializer {
      dims: 1
      data_type: 7
      name: "TFNodes/yolo_evaluation_layer_1/strided_slice_15__374"
  }
  initializer {
      dims: 1
      data_type: 7
      name: "TFNodes/yolo_evaluation_layer_1/strided_slice_14__360"
  }
  initializer {
      dims: 1
      data_type: 7
      name: "TFNodes/yolo_evaluation_layer_1/strided_slice_14__359"
  }
  initializer {
      dims: 1
      data_type: 7
      name: "TFNodes/yolo_evaluation_layer_1/strided_slice_14__358"
  }
  initializer {
      dims: 1
      data_type: 7
      name: "TFNodes/yolo_evaluation_layer_1/strided_slice_14__357"
  }
  initializer {
      dims: 1
      data_type: 7
      name: "TFNodes/yolo_evaluation_layer_1/strided_slice_13__364"
  }
  initializer {
      dims: 1
      data_type: 7
      name: "TFNodes/yolo_evaluation_layer_1/strided_slice_13__363"
  }
  initializer {
      dims: 1
      data_type: 7
      name: "TFNodes/yolo_evaluation_layer_1/strided_slice_13__362"
  }
  initializer {
      dims: 1
      data_type: 7
      name: "TFNodes/yolo_evaluation_layer_1/strided_slice_13__361"
  }
  initializer {
      dims: 1
      data_type: 7
      name: "TFNodes/yolo_evaluation_layer_1/strided_slice_12__368"
  }
  initializer {
      dims: 1
      data_type: 7
      name: "TFNodes/yolo_evaluation_layer_1/strided_slice_12__367"
  }
  initializer {
      dims: 1
      data_type: 7
      name: "TFNodes/yolo_evaluation_layer_1/strided_slice_12__366"
  }
  initializer {
      dims: 1
      data_type: 7
      name: "TFNodes/yolo_evaluation_layer_1/strided_slice_12__365"
  }
  initializer {
      dims: 1
      data_type: 7
      name: "TFNodes/yolo_evaluation_layer_1/strided_slice_11__305"
  }
  initializer {
      dims: 1
      data_type: 7
      name: "TFNodes/yolo_evaluation_layer_1/strided_slice_11__304"
  }
  initializer {
      dims: 1
      data_type: 7
      name: "TFNodes/yolo_evaluation_layer_1/strided_slice_11__303"
  }
  initializer {
      dims: 1
      data_type: 7
      name: "TFNodes/yolo_evaluation_layer_1/strided_slice_11__302"
  }
  initializer {
      dims: 1
      data_type: 7
      name: "TFNodes/yolo_evaluation_layer_1/strided_slice_10__373"
  }
  initializer {
      dims: 1
      data_type: 7
      name: "TFNodes/yolo_evaluation_layer_1/strided_slice_10__372"
  }
  initializer {
      dims: 1
      data_type: 7
      name: "TFNodes/yolo_evaluation_layer_1/strided_slice_10__371"
  }
  initializer {
      dims: 1
      data_type: 7
      name: "TFNodes/yolo_evaluation_layer_1/strided_slice_10__370"
  }
  initializer {
      data_type: 6
      name: "TFNodes/yolo_evaluation_layer_1/mul/y:0"
  }
  initializer {
      dims: 1
      data_type: 6
      name: "TFNodes/yolo_evaluation_layer_1/Tile_5/multiples/3:0"
  }
  initializer {
      dims: 1
      data_type: 6
      name: "TFNodes/yolo_evaluation_layer_1/Tile_5/multiples/2:0"
  }
  initializer {
      dims: 1
      data_type: 6
      name: "TFNodes/yolo_evaluation_layer_1/Tile_5/multiples/1:0"
  }
  initializer {
      dims: 1
      data_type: 6
      name: "TFNodes/yolo_evaluation_layer_1/Tile_4/multiples/3:0"
  }
  initializer {
      dims: 1
      data_type: 6
      name: "TFNodes/yolo_evaluation_layer_1/Tile_4/multiples/2:0"
  }
  initializer {
      dims: 1
      data_type: 6
      name: "TFNodes/yolo_evaluation_layer_1/Tile_4/multiples/0:0"
  }
  initializer {
      dims: 1
      data_type: 6
      name: "TFNodes/yolo_evaluation_layer_1/Tile_3/multiples/3:0"
  }
  initializer {
      dims: 1
      data_type: 6
      name: "TFNodes/yolo_evaluation_layer_1/Tile_3/multiples/2:0"
  }
  initializer {
      dims: 1
      data_type: 6
      name: "TFNodes/yolo_evaluation_layer_1/Tile_3/multiples/1:0"
  }
  initializer {
      dims: 1
      data_type: 6
      name: "TFNodes/yolo_evaluation_layer_1/Tile_2/multiples/3:0"
  }
  initializer {
      dims: 1
      data_type: 6
      name: "TFNodes/yolo_evaluation_layer_1/Tile_2/multiples/2:0"
  }
  initializer {
      dims: 1
      data_type: 6
      name: "TFNodes/yolo_evaluation_layer_1/Tile_2/multiples/0:0"
  }
  initializer {
      dims: 1
      data_type: 6
      name: "TFNodes/yolo_evaluation_layer_1/Tile_1/multiples/3:0"
  }
  initializer {
      dims: 1
      data_type: 6
      name: "TFNodes/yolo_evaluation_layer_1/Tile_1/multiples/2:0"
  }
  initializer {
      dims: 1
      data_type: 6
      name: "TFNodes/yolo_evaluation_layer_1/Tile_1/multiples/1:0"
  }
  initializer {
      dims: 1
      data_type: 6
      name: "TFNodes/yolo_evaluation_layer_1/Tile/multiples/3:0"
  }
  initializer {
      dims: 1
      data_type: 6
      name: "TFNodes/yolo_evaluation_layer_1/Tile/multiples/2:0"
  }
  initializer {
      dims: 1
      data_type: 6
      name: "TFNodes/yolo_evaluation_layer_1/Tile/multiples/0:0"
  }
  initializer {
      data_type: 1
      name: "TFNodes/yolo_evaluation_layer_1/Round__327"
  }
  initializer {
      data_type: 1
      name: "TFNodes/yolo_evaluation_layer_1/Round_2__331"
  }
  initializer {
      data_type: 1
      name: "TFNodes/yolo_evaluation_layer_1/Round_1__306"
  }
  initializer {
      dims: 1
      data_type: 6
      name: "TFNodes/yolo_evaluation_layer_1/Reshape_9/shape/4:0"
  }
  initializer {
      dims: 1
      data_type: 6
      name: "TFNodes/yolo_evaluation_layer_1/Reshape_9/shape/3:0"
  }
  initializer {
      dims: 1
      data_type: 6
      name: "TFNodes/yolo_evaluation_layer_1/Reshape_9/shape/0:0"
  }
  initializer {
      dims: 4
      data_type: 7
      name: "TFNodes/yolo_evaluation_layer_1/Reshape_8/shape:0"
  }
  initializer {
      dims: 4
      data_type: 7
      name: "TFNodes/yolo_evaluation_layer_1/Reshape_7/shape:0"
  }
  initializer {
      dims: 5
      data_type: 7
      name: "TFNodes/yolo_evaluation_layer_1/Reshape_6/shape:0"
  }
  initializer {
      dims: 2
      data_type: 7
      name: "TFNodes/yolo_evaluation_layer_1/Reshape_5/shape:0"
  }
  initializer {
      dims: 2
      data_type: 7
      name: "TFNodes/yolo_evaluation_layer_1/Reshape_4/shape:0"
  }
  initializer {
      dims: 1
      data_type: 6
      name: "TFNodes/yolo_evaluation_layer_1/Reshape_3/shape/4:0"
  }
  initializer {
      dims: 1
      data_type: 6
      name: "TFNodes/yolo_evaluation_layer_1/Reshape_3/shape/3:0"
  }
  initializer {
      dims: 1
      data_type: 6
      name: "TFNodes/yolo_evaluation_layer_1/Reshape_3/shape/0:0"
  }
  initializer {
      dims: 4
      data_type: 7
      name: "TFNodes/yolo_evaluation_layer_1/Reshape_2/shape:0"
  }
  initializer {
      dims: 2
      data_type: 7
      name: "TFNodes/yolo_evaluation_layer_1/Reshape_17/shape:0"
  }
  initializer {
      dims: 2
      data_type: 7
      name: "TFNodes/yolo_evaluation_layer_1/Reshape_16/shape:0"
  }
  initializer {
      dims: 1
      data_type: 6
      name: "TFNodes/yolo_evaluation_layer_1/Reshape_15/shape/4:0"
  }
  initializer {
      dims: 1
      data_type: 6
      name: "TFNodes/yolo_evaluation_layer_1/Reshape_15/shape/3:0"
  }
  initializer {
      dims: 1
      data_type: 6
      name: "TFNodes/yolo_evaluation_layer_1/Reshape_15/shape/0:0"
  }
  initializer {
      dims: 4
      data_type: 7
      name: "TFNodes/yolo_evaluation_layer_1/Reshape_14/shape:0"
  }
  initializer {
      dims: 4
      data_type: 7
      name: "TFNodes/yolo_evaluation_layer_1/Reshape_13/shape:0"
  }
  initializer {
      dims: 5
      data_type: 7
      name: "TFNodes/yolo_evaluation_layer_1/Reshape_12/shape:0"
  }
  initializer {
      dims: 2
      data_type: 7
      name: "TFNodes/yolo_evaluation_layer_1/Reshape_11/shape:0"
  }
  initializer {
      dims: 2
      data_type: 7
      name: "TFNodes/yolo_evaluation_layer_1/Reshape_10/shape:0"
  }
  initializer {
      dims: 4
      data_type: 7
      name: "TFNodes/yolo_evaluation_layer_1/Reshape_1/shape:0"
  }
  initializer {
      dims: 5
      data_type: 7
      name: "TFNodes/yolo_evaluation_layer_1/Reshape/shape:0"
  }
  initializer {
      dims: 3
      dims: 2
      data_type: 1
      name: "TFNodes/yolo_evaluation_layer_1/Const_4:0"
  }
  initializer {
      dims: 3
      dims: 2
      data_type: 1
      name: "TFNodes/yolo_evaluation_layer_1/Const_2:0"
  }
  initializer {
      dims: 3
      dims: 2
      data_type: 1
      name: "TFNodes/yolo_evaluation_layer_1/Const:0"
  }
  initializer {
      data_type: 7
      name: "max_output_size"
  }
  initializer {
      dims: 512
      data_type: 6
      name: "arange_base"
  }
  initializer {
      dims: 1
      data_type: 7
      name: "arange_start"
  }
  initializer {
      dims: 32
      data_type: 1
      name: "combine_model_convolution_output74.opt.bias"
  }
  initializer {
      dims: 64
      data_type: 1
      name: "combine_model_convolution_output71.opt.bias"
  }
  initializer {
      dims: 32
      data_type: 1
      name: "combine_model_convolution_output73.opt.bias"
  }
  initializer {
      dims: 64
      data_type: 1
      name: "combine_model_convolution_output72.opt.bias"
  }
  initializer {
      dims: 128
      data_type: 1
      name: "combine_model_convolution_output67.opt.bias"
  }
  initializer {
      dims: 64
      data_type: 1
      name: "combine_model_convolution_output70.opt.bias"
  }
  initializer {
      dims: 128
      data_type: 1
      name: "combine_model_convolution_output68.opt.bias"
  }
  initializer {
      dims: 64
      data_type: 1
      name: "combine_model_convolution_output69.opt.bias"
  }
  initializer {
      dims: 128
      data_type: 1
      name: "combine_model_convolution_output66.opt.bias"
  }
  initializer {
      dims: 256
      data_type: 1
      name: "combine_model_convolution_output57.opt.bias"
  }
  initializer {
      dims: 128
      data_type: 1
      name: "combine_model_convolution_output65.opt.bias"
  }
  initializer {
      dims: 256
      data_type: 1
      name: "combine_model_convolution_output58.opt.bias"
  }
  initializer {
      dims: 128
      data_type: 1
      name: "combine_model_convolution_output63.opt.bias"
  }
  initializer {
      dims: 256
      data_type: 1
      name: "combine_model_convolution_output52.opt.bias"
  }
  initializer {
      dims: 128
      data_type: 1
      name: "combine_model_convolution_output61.opt.bias"
  }
  initializer {
      dims: 256
      data_type: 1
      name: "combine_model_convolution_output48.opt.bias"
  }
  initializer {
      dims: 128
      data_type: 1
      name: "combine_model_convolution_output59.opt.bias"
  }
  initializer {
      dims: 256
      data_type: 1
      name: "combine_model_convolution_output43.opt.bias"
  }
  initializer {
      dims: 128
      data_type: 1
      name: "combine_model_convolution_output53.opt.bias"
  }
  initializer {
      dims: 256
      data_type: 1
      name: "combine_model_convolution_output38.opt.bias"
  }
  initializer {
      dims: 128
      data_type: 1
      name: "combine_model_convolution_output49.opt.bias"
  }
  initializer {
      dims: 256
      data_type: 1
      name: "combine_model_convolution_output34.opt.bias"
  }
  initializer {
      dims: 128
      data_type: 1
      name: "combine_model_convolution_output44.opt.bias"
  }
  initializer {
      dims: 256
      data_type: 1
      name: "combine_model_convolution_output29.opt.bias"
  }
  initializer {
      dims: 128
      data_type: 1
      name: "combine_model_convolution_output39.opt.bias"
  }
  initializer {
      dims: 256
      data_type: 1
      name: "combine_model_convolution_output26.opt.bias"
  }
  initializer {
      dims: 512
      data_type: 1
      name: "combine_model_convolution_output54.opt.bias"
  }
  initializer {
      dims: 256
      data_type: 1
      name: "combine_model_convolution_output64.opt.bias"
  }
  initializer {
      dims: 512
      data_type: 1
      name: "combine_model_convolution_output55.opt.bias"
  }
  initializer {
      dims: 256
      data_type: 1
      name: "combine_model_convolution_output62.opt.bias"
  }
  initializer {
      dims: 512
      data_type: 1
      name: "combine_model_convolution_output50.opt.bias"
  }
  initializer {
      dims: 256
      data_type: 1
      name: "combine_model_convolution_output60.opt.bias"
  }
  initializer {
      dims: 512
      data_type: 1
      name: "combine_model_convolution_output46.opt.bias"
  }
  initializer {
      dims: 256
      data_type: 1
      name: "combine_model_convolution_output56.opt.bias"
  }
  initializer {
      dims: 512
      data_type: 1
      name: "combine_model_convolution_output41.opt.bias"
  }
  initializer {
      dims: 256
      data_type: 1
      name: "combine_model_convolution_output51.opt.bias"
  }
  initializer {
      dims: 512
      data_type: 1
      name: "combine_model_convolution_output36.opt.bias"
  }
  initializer {
      dims: 256
      data_type: 1
      name: "combine_model_convolution_output47.opt.bias"
  }
  initializer {
      dims: 512
      data_type: 1
      name: "combine_model_convolution_output33.opt.bias"
  }
  initializer {
      dims: 256
      data_type: 1
      name: "combine_model_convolution_output42.opt.bias"
  }
  initializer {
      dims: 512
      data_type: 1
      name: "combine_model_convolution_output28.opt.bias"
  }
  initializer {
      dims: 256
      data_type: 1
      name: "combine_model_convolution_output37.opt.bias"
  }
  initializer {
      dims: 512
      data_type: 1
      name: "combine_model_convolution_output24.opt.bias"
  }
  initializer {
      dims: 1024
      data_type: 1
      name: "combine_model_convolution_output30.opt.bias"
  }
  initializer {
      dims: 512
      data_type: 1
      name: "combine_model_convolution_output45.opt.bias"
  }
  initializer {
      dims: 1024
      data_type: 1
      name: "combine_model_convolution_output31.opt.bias"
  }
  initializer {
      dims: 512
      data_type: 1
      name: "combine_model_convolution_output40.opt.bias"
  }
  initializer {
      dims: 1024
      data_type: 1
      name: "combine_model_convolution_output27.opt.bias"
  }
  initializer {
      dims: 512
      data_type: 1
      name: "combine_model_convolution_output35.opt.bias"
  }
  initializer {
      dims: 1024
      data_type: 1
      name: "combine_model_convolution_output22.opt.bias"
  }
  initializer {
      dims: 512
      data_type: 1
      name: "combine_model_convolution_output32.opt.bias"
  }
  initializer {
      dims: 1024
      data_type: 1
      name: "combine_model_convolution_output21.opt.bias"
  }
  initializer {
      dims: 512
      data_type: 1
      name: "combine_model_convolution_output18.opt.bias"
  }
  initializer {
      dims: 1024
      data_type: 1
      name: "combine_model_convolution_output15.opt.bias"
  }
  initializer {
      dims: 512
      data_type: 1
      name: "combine_model_convolution_output12.opt.bias"
  }
  initializer {
      dims: 1024
      data_type: 1
      name: "combine_model_convolution_output9.opt.bias"
  }
  initializer {
      dims: 512
      data_type: 1
      name: "combine_model_convolution_output6.opt.bias"
  }
  initializer {
      dims: 1024
      data_type: 1
      name: "combine_model_convolution_output3.opt.bias"
  }
  initializer {
      dims: 256
      data_type: 1
      name: "combine_model_convolution_output23.opt.bias"
  }
  initializer {
      dims: 256
      data_type: 1
      name: "combine_model_convolution_output19.opt.bias"
  }
  initializer {
      dims: 512
      data_type: 1
      name: "combine_model_convolution_output16.opt.bias"
  }
  initializer {
      dims: 256
      data_type: 1
      name: "combine_model_convolution_output13.opt.bias"
  }
  initializer {
      dims: 512
      data_type: 1
      name: "combine_model_convolution_output10.opt.bias"
  }
  initializer {
      dims: 256
      data_type: 1
      name: "combine_model_convolution_output7.opt.bias"
  }
  initializer {
      dims: 512
      data_type: 1
      name: "combine_model_convolution_output4.opt.bias"
  }
  initializer {
      dims: 128
      data_type: 1
      name: "combine_model_convolution_output25.opt.bias"
  }
  initializer {
      dims: 128
      data_type: 1
      name: "combine_model_convolution_output20.opt.bias"
  }
  initializer {
      dims: 256
      data_type: 1
      name: "combine_model_convolution_output17.opt.bias"
  }
  initializer {
      dims: 128
      data_type: 1
      name: "combine_model_convolution_output14.opt.bias"
  }
  initializer {
      dims: 256
      data_type: 1
      name: "combine_model_convolution_output11.opt.bias"
  }
  initializer {
      dims: 128
      data_type: 1
      name: "combine_model_convolution_output8.opt.bias"
  }
  initializer {
      dims: 256
      data_type: 1
      name: "combine_model_convolution_output5.opt.bias"
  }
  input {
    name: "input_1"
    type {
      tensor_type {
        elem_type: 1
        shape {
          dim {
            dim_param: "N"
          }
          dim {
            dim_value: 3
          }
          dim {
            dim_param: "M1"
          }
          dim {
            dim_param: "M2"
          }
        }
      }
    }
  }
  input {
    name: "image_shape"
    type {
      tensor_type {
        elem_type: 1
        shape {
          dim {
            dim_param: "N"
          }
          dim {
            dim_value: 2
          }
        }
      }
    }
  }
  input {
    name: "iou_threshold"
    type {
      tensor_type {
        elem_type: 1
        shape {
          dim {
            dim_value: 1
          }
        }
      }
    }
  }
  input {
    name: "layer.score_threshold"
    type {
      tensor_type {
        elem_type: 1
        shape {
          dim {
            dim_value: 1
          }
        }
      }
    }
  }
  output {
    name: "yolonms_layer_1"
    type {
      tensor_type {
        elem_type: 1
        shape {
          dim {
            dim_value: 1
          }
          dim {
            dim_param: "M1"
          }
          dim {
            dim_value: 4
          }
        }
      }
    }
  }
  output {
    name: "yolonms_layer_1_1"
    type {
      tensor_type {
        elem_type: 1
        shape {
          dim {
            dim_value: 1
          }
          dim {
            dim_value: 80
          }
          dim {
            dim_param: "M2"
          }
        }
      }
    }
  }
  output {
    name: "yolonms_layer_1_2"
    type {
      tensor_type {
        elem_type: 6
        shape {
          dim {
            dim_value: 1
          }
          dim {
            dim_param: "M3"
          }
          dim {
            dim_value: 3
          }
        }
      }
    }
  }
}
opset_import {
  version: 10
}
